pokemon_team_optimizer.pth (torch, 104546 bytes, 11 tensors)

gat1.att_src f4 [1, 4, 64]
0	0x3e3a454f	0.18190502
1	0x3e5e44a6	0.21705875
2	0x3e0791b8	0.13239181
3	0x3e3ace78	0.18242824
4	0xbd4c91b1	-0.04994363
5	0xbe9d0d8f	-0.30674407
6	0xbe395e9f	-0.18102501
7	0x3e68cf72	0.22735384
8	0xbe91ec14	-0.28500426
9	0xbeaa6d61	-0.33286574
10	0x3e3f422c	0.18677586
11	0xbde1534f	-0.11002218
12	0x3dd6d257	0.10489338
13	0xbea4a7f6	-0.32159394
14	0x3e68eee5	0.22747381
15	0x3d5ebc0e	0.05437856
16	0x3e73f09d	0.23822255
17	0xbe0e0760	-0.13870001
18	0x3e98563c	0.29753292
19	0xbe17cf65	-0.14825208
20	0x3c669631	0.014073894
21	0xbdce5611	-0.100750096
22	0x3dbf6252	0.09344925
23	0xbe4d6785	-0.20059021
24	0x3b7e6994	0.0038820254
25	0x3e6a4354	0.22877246
26	0x3cf67f19	0.030089902
27	0xbe489194	-0.19586784
28	0xbdfc34b2	-0.12314738
29	0x3e27c430	0.16383433
30	0xbe164884	-0.146761
31	0xbca09093	-0.019600188
32	0xbe104750	-0.14089704
33	0xbe433879	-0.19064511
34	0x3d56bf84	0.052428737
35	0xbed53df0	-0.41648817
36	0x3ea22b0c	0.31673467
37	0x3e163b37	0.14671026
38	0xbe341361	-0.17585517
39	0xbe296e9f	-0.16546105
40	0xbea0054d	-0.31254044
41	0x3cf2dc0a	0.029645938
42	0xbe995f3a	-0.29955465
43	0xbeb0ea74	-0.34553874
44	0x3e332577	0.1749476
45	0x3eb34e2d	0.3502058
46	0x3d9d9f38	0.07696384
47	0xbd5e4119	-0.0542613
48	0xbe0b46f9	-0.13601293
49	0xbe0ab844	-0.13546854
50	0xbecb58df	-0.3971624
51	0x3e69101a	0.22760049
52	0x3e86cdc0	0.2632885
53	0xbdca25c6	-0.09870486
54	0xbe0bb664	-0.13643795
55	0xbdbfff34	-0.09374848
56	0xbd2e9071	-0.04261822
57	0x3cfb69b7	0.030690057
58	0x3b8d3348	0.0043090917
59	0xbd3ebcea	-0.04656688
60	0x3e013b7f	0.12620352
61	0xbe83c62b	-0.25737128
62	0x3e73b9d6	0.2380136
63	0x3dcfd697	0.10148352
64	0xbb98472c	-0.004647156
65	0x3e80e8e2	0.25177675
66	0xbdf4a86e	-0.11946188
67	0x3cd1205b	0.025528124
68	0x3dbff23d	0.09372375
69	0x3dddf1ec	0.108371586
70	0xbe044da9	-0.1292025
71	0x3e6d1788	0.23153508
72	0xbb1027b4	-0.002199632
73	0x3dea6570	0.11445129
74	0xbe0a4581	-0.13503076
75	0x3e5439d5	0.20725186
76	0xbd9ba3ac	-0.07599577
77	0xbcb4b6cf	-0.022059826
78	0xbe717169	-0.23578419
79	0xbd47efa1	-0.048812512
80	0xbe2e6f5c	-0.17034668
81	0xbe70578f	-0.23470901
82	0xbe5af0ec	-0.21380967
83	0x3e8f6917	0.28009865
84	0x3da4d0c7	0.080476336
85	0xbeb01795	-0.34392992
86	0xbeb20674	-0.34770548
87	0x3e0695fa	0.13143149
88	0x3e3158e4	0.17319065
89	0xbe17d3b6	-0.14826855
90	0xbe13c257	-0.14429604
91	0x3e4d6185	0.20056732
92	0xbe3ac2d9	-0.18238391
93	0x3e82a184	0.25513852
94	0xbe432887	-0.19058429
95	0x3eaf8da8	0.34287763
96	0x3e0d4731	0.13796689
97	0xbd9c69da	-0.07637377
98	0x3e69fdd0	0.22850728
99	0x3e8d24d8	0.27567172
100	0xbe25b89f	-0.16183709
101	0xbe703dbf	-0.23461054
102	0xbe833792	-0.25628334
103	0x3d8b9bc1	0.06816817
104	0xbea1ab5b	-0.31576046
105	0x3e1c0b9f	0.15238808
106	0xbe781f92	-0.24230793
107	0x3dc9156f	0.09818541
108	0xbe3c6ad2	-0.18400124
109	0x3e8b894a	0.2725318
110	0xbeb3013b	-0.34961876
111	0x3e547c00	0.20750427
112	0xbeba5af3	-0.36397514
113	0x3dd92de7	0.10604458
114	0xbdab44c5	-0.08362726
115	0xbdb50452	-0.08838715
116	0xbd1ee59f	-0.038793202
117	0x3e9cc228	0.3061688
118	0xbd508c9e	-0.050915353
119	0x3e73063c	0.23732847
120	0xbe98c52c	-0.2983793
121	0x3e0a2c0f	0.1349337
122	0xbe9bdb34	-0.30440676
123	0xbde6124a	-0.11233957
124	0xbdcf319a	-0.101168826
125	0x3e60a90a	0.21939483
126	0x3d987586	0.07444291
127	0x3e46ff99	0.1943344
128	0x3ea7160a	0.32634002
129	0x3de7ed12	0.113245144
130	0x3ed49bcc	0.41525114
131	0x3e63e8d2	0.22256783
132	0x3d684568	0.056706816
133	0x3e977b34	0.29586184
134	0x3e812449	0.25222996
135	0x3c86cdc8	0.016455546
136	0xbed04b43	-0.4068242
137	0x3e8ce79d	0.27520457
138	0xbe71f34b	-0.23627965
139	0xbeee8ffe	-0.46594232
140	0xbd99990f	-0.07499897
141	0x3e9cc0c4	0.30615819
142	0xbe499325	-0.19685037
143	0x3e171ddc	0.14757484
144	0xbe8ad4af	-0.2711539
145	0x3c34e266	0.011040306
146	0xbe6b5653	-0.22982149
147	0x3db7781f	0.08958458
148	0x3e77d567	0.242025
149	0x3e80f661	0.25187972
150	0xbe7e1ba2	-0.24815229
151	0xbda0dee0	-0.0785501
152	0x3c8619bf	0.016369699
153	0x3e9242f1	0.28566697
154	0xbe1efab5	-0.15525325
155	0x3da4687b	0.080277406
156	0x3e98cdf8	0.29844642
157	0xbe85711c	-0.26062858
158	0x3e1db945	0.15402706
159	0x3e6c45e6	0.23073539
160	0x3deea0f1	0.11651791
161	0xbdd8d099	-0.10586662
162	0xbdbe42d2	-0.09290089
163	0xbdce8ae1	-0.10085083
164	0xbe44c923	-0.19217353
165	0xbede9e5b	-0.4348019
166	0x3e739360	0.23786688
167	0x3d933f11	0.07189763
168	0xbe97ebdf	-0.29672143
169	0x3e884e23	0.26622114
170	0x3e71dc68	0.23619235
171	0xbe94ce76	-0.29063767
172	0x3d06f3c2	0.03294731
173	0xbd8cc382	-0.06873228
174	0xbe82030c	-0.2539295
175	0x3e13a5a2	0.14418653
176	0x3eab8f9d	0.33508006
177	0xbe508c54	-0.20366031
178	0xbdb28218	-0.0871622
179	0x3e416766	0.188871
180	0x3e410ee8	0.18853343
181	0x3e0fdf9d	0.14050145
182	0xbe9835bf	-0.29728505
183	0x3e118e4e	0.14214441
184	0x3e73d937	0.2381333
185	0x3d8df834	0.069321066
186	0x3e492c13	0.19645719
187	0x3e4cb5de	0.19991252
188	0xbe5e2a02	-0.21695712
189	0xbea59812	-0.32342583
190	0x3e935e4a	0.28782874
191	0xbd9129af	-0.07088029
192	0xbd65de6b	-0.056120317
193	0xbd88560c	-0.06657037
194	0xbe1de357	-0.15418755
195	0xbe64fee7	-0.22362863
196	0xbd76e789	-0.060279403
197	0xbdd55313	-0.10416236
198	0x3e9ac946	0.30231684
199	0x3e606864	0.21914822
200	0xbd44d8d3	-0.048058342
201	0x3eaba873	0.33526954
202	0x3d296e7a	0.041365124
203	0xbcf34a70	-0.02969858
204	0x3ea8ad76	0.3294484
205	0xbea7e093	-0.32788524
206	0x3e5bb157	0.21454369
207	0xbdf601ad	-0.120120384
208	0x3e73116e	0.23737118
209	0x3ecd234e	0.40065998
210	0x3e9eca1e	0.31013578
211	0x3ed879e4	0.42280495
212	0x3e56d23c	0.20978636
213	0xbe427fd2	-0.18994072
214	0x3ea76350	0.32692957
215	0xbde3e399	-0.11127395
216	0xbe809f82	-0.25121695
217	0x3ece0e09	0.40245083
218	0x3e57c0f3	0.21069698
219	0x3e806280	0.2507515
220	0xbe7096f1	-0.2349508
221	0xbed3f847	-0.41400358
222	0x3e967306	0.2938463
223	0xbdbaff06	-0.09130673
224	0x3eab7688	0.3348887
225	0xbde40a78	-0.11134809
226	0x3e3ad1d1	0.18244101
227	0xbdb8ed89	-0.09029681
228	0xbe3dc626	-0.18532619
229	0x3e8f8263	0.28029165
230	0x3e135948	0.14389527
231	0x3d7af22f	0.06126612
232	0x3e2a3f88	0.16625798
233	0xbdfeb7a0	-0.124373674
234	0x3dbede6f	0.093197696
235	0x3e2697f5	0.16268905
236	0x3e8638ea	0.26215297
237	0x3df54f07	0.11977964
238	0xbce8d81c	-0.028423361
239	0x3e8ad34c	0.27114332
240	0xbe27aee0	-0.16375303
241	0xbe4696be	-0.19393441
242	0x3e835190	0.25648165
243	0xbe712726	-0.2355009
244	0xbe9525c0	-0.29130363
245	0xbe090654	-0.1338132
246	0xbeafdb5d	-0.34347048
247	0x3e03f57d	0.12886615
248	0xbe92bfbe	-0.28661913
249	0x3dee85a2	0.11646582
250	0x3e537680	0.20650673
251	0x3e90f4cc	0.28311765
252	0xbe916044	-0.28393757
253	0x3ebb814d	0.36622086
254	0x3ecd221c	0.40065086
255	0x3e59fe40	0.21288395

gat1.att_dst f4 [1, 4, 64]
0	0xbc4d676d	-0.012536866
1	0x3ae306b4	0.0017320723
2	0x3de0d2b0	0.109776855
3	0x3eb3dfaa	0.3513158
4	0xbecaa32b	-0.39577612
5	0xbeabacd8	-0.33530307
6	0x3ebc5c65	0.3678924
7	0x3debce48	0.115139544
8	0x3ea331ba	0.31873876
9	0x3d8120a5	0.063050546
10	0xbe3e0924	-0.18558174
11	0x3ec75e4f	0.3893914
12	0xbe134611	-0.14382197
13	0x3e6f6c56	0.2338117
14	0x3e0d9576	0.13826546
15	0x3ee09758	0.43865466
16	0xbe3c9787	-0.18417178
17	0xbcac169d	-0.021006877
18	0xbde9b926	-0.114122674
19	0xbd002406	-0.031284355
20	0x3ebaada6	0.36460608
21	0xbbea0a65	-0.0071423524
22	0x3edefbc7	0.43551466
23	0x3eb10314	0.3457266
24	0xbe0ef9f2	-0.13962534
25	0xbdfb74a3	-0.12278106
26	0x3e8a1acc	0.2697357
27	0x3e2e36cd	0.17013092
28	0xbec81018	-0.3907478
29	0x3c788821	0.015169174
30	0x3e0cf2d5	0.13764508
31	0x3eb51975	0.35370985
32	0x3c842bff	0.01613426
33	0xbd4d6004	-0.050140396
34	0xbd64d176	-0.05586382
35	0x3d9986f1	0.07496441
36	0xbced4b69	-0.028966622
37	0x3e73217b	0.2374324
38	0x3e5f40b1	0.21802022
39	0xbd97ee3d	-0.07418487
40	0xbc445012	-0.011981981
41	0xbde8f23e	-0.11374329
42	0x3da69426	0.08133726
43	0x3ece399f	0.40278336
44	0x3e8184c6	0.2529661
45	0x3d87353d	0.06601951
46	0x3da2c3c4	0.079474956
47	0xbe21a684	-0.15786177
48	0x3ca887b8	0.020572528
49	0x3de5b7a1	0.11216665
50	0x3e05b1e4	0.13056141
51	0x3d9230f4	0.07138243
52	0xbea05d1b	-0.31321034
53	0xbe88c95b	-0.26716122
54	0xbd67d174	-0.056596234
55	0x3ed72644	0.42021382
56	0xbe16b376	-0.14716896
57	0x3e9e61dc	0.30934036
58	0x3eb0a391	0.3449979
59	0x3e1193b6	0.14216504
60	0x3e253f31	0.16137387
61	0x3ec7a25a	0.38991052
62	0x3c34f068	0.011043645
63	0x3e38e077	0.18054377
64	0x3e73d08a	0.2381002
65	0xbe818739	-0.2529848
66	0x3d0544f1	0.03253645
67	0x3e46c9ec	0.19412965
68	0x3d4dd37a	0.050250508
69	0xbd8535b4	-0.06504384
70	0xbe2f4c6b	-0.17118995
71	0x3eb14029	0.34619263
72	0x3e7b4cf3	0.24541073
73	0x3e719e3b	0.23595516
74	0xbe97fd1d	-0.29685298
75	0xbcd092b0	-0.025460571
76	0xbdba0c88	-0.090844214
77	0xbd3769be	-0.044778578
78	0x3d44972f	0.047995742
79	0x3e67b4a2	0.226275
80	0xbd112875	-0.035438973
81	0xbd1816c9	-0.037131105
82	0x3e428b7e	0.18998525
83	0x3e6a9a6f	0.22910474
84	0x3e82e4ad	0.2556509
85	0x3dd577a1	0.10423208
86	0x3e0d7962	0.13815835
87	0x3c97f801	0.018550875
88	0x3e8df031	0.27722314
89	0xbe444539	-0.19167031
90	0x3dc1a263	0.09454801
91	0xbd6cf369	-0.05784932
92	0x3e87dd11	0.26535848
93	0x3e95dadd	0.29268542
94	0x3c450125	0.012024199
95	0xbdd4201c	-0.10357687
96	0xbdecb80b	-0.11558541
97	0x3e1f0e26	0.15532741
98	0xbe08db07	-0.13364802
99	0x3e798965	0.24368818
100	0xbe576a8d	-0.2103674
101	0x3dfda9e3	0.12385919
102	0x3ded06ac	0.11573538
103	0x3e8131d6	0.25233334
104	0x3dd3f6c6	0.10349803
105	0x3d874723	0.06605365
106	0xbd9cce32	-0.07656516
107	0x3e0da320	0.13831758
108	0x3d08cba8	0.033397347
109	0xbe42dd2f	-0.19029687
110	0xbd93cd84	-0.07216933
111	0x3dc5cf52	0.09658684
112	0x3e396d00	0.18107986
113	0xbe15fbef	-0.14646886
114	0x3e6b2c90	0.22966218
115	0xbcc2817e	-0.023743387
116	0xbdc08c7f	-0.094017975
117	0x3e9c3e27	0.30516168
118	0xbcfad753	-0.030620253
119	0xbcc9fc58	-0.02465646
120	0xbe78d2be	-0.24299142
121	0x3e0d58e3	0.13803439
122	0xbe5f9b83	-0.21836667
123	0xbe427b60	-0.18992376
124	0x3ea9c2ec	0.33156526
125	0xbe510a40	-0.20414066
126	0x3e199be5	0.15000875
127	0xbe398f3d	-0.18121047
128	0xbe885801	-0.26629642
129	0x3e8f1bbe	0.27950853
130	0x3e96b1a4	0.29432404
131	0xbcebf7e3	-0.028804725
132	0x3daf1193	0.08548274
133	0xbe0f8e93	-0.14019231
134	0x3d02c3a0	0.031924844
135	0x3e539fe6	0.20666465
136	0x3c502bc7	0.01270575
137	0x3e5ede04	0.2176438
138	0x3dc0a941	0.094072826
139	0x3e131edc	0.1436724
140	0x3e6512e5	0.22370489
141	0xbd8cd041	-0.06875659
142	0x3d915dfa	0.07098003
143	0xbdaf67b4	-0.08564702
144	0x3dfa3826	0.12217741
145	0x3dcaa0e8	0.09893972
146	0xbe0b9916	-0.13632616
147	0x3e7ea5ce	0.24867937
148	0x3e45cd2c	0.19316548
149	0x3dee276f	0.11628615
150	0x3e926cd8	0.28598666
151	0xbda39717	-0.079878025
152	0x3d557012	0.05210883
153	0x3e7c0821	0.24612476
154	0xbeacad5b	-0.3372601
155	0x3cc8cc08	0.024511352
156	0x3c090511	0.008363024
157	0x3e817b60	0.2528944
158	0x3e0d0556	0.13771567
159	0xbe71e6c2	-0.23623183
160	0xbd36e830	-0.044655025
161	0xbca7a470	-0.020464152
162	0x3e50ca1d	0.203896
163	0xbd7fe886	-0.06247761
164	0x3e8f1c1f	0.27951142
165	0x3e4e100f	0.20123313
166	0xbe090617	-0.1338123
167	0x3e78f606	0.243126
168	0x3c8678b2	0.016414974
169	0xbe853321	-0.2601557
170	0x3e81b09d	0.25330058
171	0xbe3d4ce4	-0.18486363
172	0x3e1142e6	0.14185676
173	0x3e1c180c	0.15243548
174	0xbe28c1c7	-0.1648017
175	0xbda5d00b	-0.08096322
176	0x3e7193a2	0.23591474
177	0xbe26316f	-0.16229795
178	0x3dc46c28	0.09590942
179	0x3eb5bf43	0.35497484
180	0xbe6cbbd0	-0.2311852
181	0x3e9805c9	0.29691914
182	0x3e4bbd6c	0.19896477
183	0x3c99e7f7	0.018787367
184	0x3e1e709b	0.15472643
185	0x3d9b84c5	0.07593683
186	0xbe4b4512	-0.19850567
187	0x3cdf2795	0.027240554
188	0x3e143d75	0.14476569
189	0xbd167dca	-0.036741056
190	0x3eb5251a	0.3537987
191	0x3cb1f57d	0.021723503
192	0xbeaba3be	-0.33523363
193	0xbe223ec8	-0.15844262
194	0x3d238c5f	0.03992879
195	0x3df09968	0.1174801
196	0xbceca13c	-0.028885476
197	0xbe71ccab	-0.23613231
198	0x3e28f05a	0.16497937
199	0x3e509a93	0.20371465
200	0xbb3af754	-0.0028528767
201	0x3e9914df	0.29898736
202	0xbe891e7d	-0.26781073
203	0xbe3df902	-0.1855202
204	0xbdcb9eff	-0.099424355
205	0x3e83292a	0.25617343
206	0xbc81a3bd	-0.015825147
207	0x3e80cf6f	0.2515826
208	0x3e1a0baa	0.15043512
209	0x3e1fd320	0.15607882
210	0xbd8c02bd	-0.0683646
211	0xbe4f613e	-0.20251939
212	0xbcb2ab62	-0.021810237
213	0xbe19cc03	-0.1501923
214	0xbcdea5f6	-0.027178746
215	0x3d9814bf	0.07425832
216	0xbd05f007	-0.03269961
217	0x3e11fe3c	0.14257139
218	0xbd035b18	-0.032069296
219	0x3d248582	0.040166385
220	0xbd933aa3	-0.071889184
221	0xbeb77c61	-0.3583708
222	0x3ec12426	0.37722892
223	0x3dc204de	0.094735846
224	0xbd674546	-0.05646255
225	0x3e593084	0.21209913
226	0x3dcfc825	0.101455964
227	0x3defffd5	0.11718718
228	0x3e81bde1	0.2534018
229	0xbe3e7502	-0.18599322
230	0xbd45bc7b	-0.048275452
231	0x3eaa30d5	0.3324038
232	0xbddb5085	-0.10708717
233	0x3e8b8747	0.27251646
234	0x3da7a66c	0.08186039
235	0xbdeded88	-0.11617571
236	0xb8f60f7d	-0.00011733079
237	0xbe4b9789	-0.19882025
238	0xbe4f9f5a	-0.20275632
239	0x3edbfd65	0.42966762
240	0x3ea766b1	0.32695535
241	0x3ec1f405	0.37881485
242	0x3e4406ec	0.19143265
243	0xbd93ce69	-0.07217104
244	0xbcbe26fc	-0.023211949
245	0xbdaa87ce	-0.08326684
246	0xbebbed07	-0.36704275
247	0x3e013af2	0.12620142
248	0xbe1c3fc9	-0.15258707
249	0xbcb31504	-0.021860607
250	0xbe0bd22f	-0.13654397
251	0x3e3c2af1	0.18375756
252	0xbd1f1411	-0.038837496
253	0x3daaf670	0.083477855
254	0x3c4f3370	0.012646541
255	0x3e6903b2	0.22755316

gat1.bias f4 [256]
0	0x3c9821ea	0.018570859
1	0x3b80c746	0.0039300052
2	0x3d1009f7	0.035165753
3	0x3d0d4b91	0.034495894
4	0xbc31211e	-0.010811118
5	0xbbe27f66	-0.0069121597
6	0x3d20dde9	0.03927413
7	0x3c0644c6	0.008195108
8	0xbd34040e	-0.04394918
9	0x3d1d814a	0.038453378
10	0xbd068283	-0.03283931
11	0x3d443d24	0.04790987
12	0x3d2396fd	0.039938916
13	0x3d1ed9b7	0.038781848
14	0xbb016251	-0.001974244
15	0x3d219056	0.03944429
16	0x3d251310	0.040301383
17	0x3d52680c	0.051368758
18	0x3d32cf7e	0.04365491
19	0x3d2f3caf	0.04278248
20	0x3d27ba3f	0.040949102
21	0xbc6a16b0	-0.014287636
22	0x3d56f29b	0.05247746
23	0x3d2b134f	0.04176646
24	0x3d4a9e74	0.04946752
25	0x3cccb420	0.024988234
26	0x3d30d2b3	0.04316969
27	0x3d319de8	0.04336348
28	0xbccfa22d	-0.025345886
29	0x3c26f03f	0.010189115
30	0x3d753c46	0.059871934
31	0x3d3c2950	0.045937836
32	0x3ccf76cf	0.025325207
33	0x3d3bcdc3	0.045850527
34	0x3a90e36d	0.0011054106
35	0xbd9958a9	-0.07487614
36	0xbcc6ac21	-0.024252
37	0x3d1fb8f1	0.038994733
38	0x3d2f8c60	0.04285848
39	0x3d6a8ad0	0.05726129
40	0x3d44d14d	0.048051167
41	0xbc500a13	-0.012697714
42	0x3d241826	0.040062092
43	0xbca4b7f4	-0.020107247
44	0xbc86a755	-0.016437212
45	0x3d1a4df6	0.037672006
46	0xbc201096	-0.009769579
47	0x3b3c7810	0.0028758086
48	0xbcccdfc1	-0.025009038
49	0xbd0221a3	-0.03177036
50	0x3c06375d	0.008191911
51	0x3d4b7c66	0.049679182
52	0xbcecad5a	-0.028891254
53	0xbbe922c3	-0.0071147396
54	0x3d13f930	0.036126316
55	0x3d2d8cc3	0.04237057
56	0x3c57b9c6	0.01316685
57	0x3d5c832f	0.053836044
58	0x3ba76cac	0.0051093902
59	0x3b62f368	0.0034629945
60	0x3ceeb4a9	0.02913888
61	0x3d267dac	0.040647194
62	0x3cf17350	0.02947393
63	0x3d1acc2c	0.03779237
64	0x3d2f7fd4	0.042846516
65	0xbac8a815	-0.0015308881
66	0x3d53f46d	0.051746774
67	0x3d199a6a	0.037500776
68	0xbce17b99	-0.027524756
69	0xbd41963d	-0.04726242
70	0x3d0ac771	0.03388161
71	0x3d39ef4e	0.045394234
72	0x3d14d4b1	0.03633565
73	0x3d0ef24d	0.034899045
74	0xbca29be7	-0.01984973
75	0xbc81b510	-0.015833408
76	0x3d31965f	0.043356296
77	0x3d1edf7d	0.038787354
78	0x3d2078c0	0.039177656
79	0xbd0b6fb2	-0.034042068
80	0xbd0cefde	-0.034408443
81	0xbcb6e7bb	-0.022327295
82	0x3d27dab9	0.040980075
83	0xbd2d40be	-0.04229807
84	0x3bef0301	0.0072940593
85	0x3d043c80	0.03228426
86	0x3d3eab00	0.046549797
87	0xbd1f4514	-0.038884237
88	0x3d2679e1	0.040643577
89	0xbc2f844a	-0.0107126925
90	0x3d1d99c6	0.038476728
91	0x3d2c45ec	0.04205887
92	0x3d490ffa	0.049087502
93	0x3d0ef001	0.034896854
94	0xbbb4b48d	-0.0055146874
95	0xbce02681	-0.02736211
96	0x3cf2ba2a	0.029629786
97	0x3d2dcc5b	0.042431217
98	0x3d0e5724	0.034751073
99	0x3d2c830f	0.042117175
100	0x3d1aa231	0.037752334
101	0xbc824b1e	-0.01590496
102	0x3d3c96b0	0.046042144
103	0xbd252fd5	-0.04032882
104	0x3c76b3a7	0.015057481
105	0xbba3698a	-0.0049869465
106	0x3d573697	0.052542295
107	0x3c8809ca	0.01660623
108	0x3b1b8be7	0.0023734511
109	0x3d15b9a8	0.03655401
110	0x3c0cd573	0.008595812
111	0x3d3ad9d9	0.045617912
112	0xbd20d675	-0.039267022
113	0x3d577b00	0.052607536
114	0x3d151ce9	0.036404524
115	0x3d23dc6d	0.040005136
116	0x3d2311a0	0.03981173
117	0x3d052ad2	0.03251154
118	0xbc84a0f0	-0.016190022
119	0x3d4b8010	0.049682677
120	0xbd0d8aff	-0.034556385
121	0x3d13325d	0.035936702
122	0x3d090cb6	0.033459388
123	0x3d43269d	0.047644246
124	0x3d2ee04d	0.04269438
125	0x3d203773	0.03911538
126	0xbcc55066	-0.024086189
127	0x3d10a2b7	0.035311427
128	0x3d631983	0.05544425
129	0x3d237831	0.039909545
130	0x3d3d0c80	0.0461545
131	0xbcc475c7	-0.023981942
132	0xbca760dd	-0.02043193
133	0x3d234fa4	0.039870873
134	0x3c633165	0.013866757
135	0x3aacdf0c	0.0013189032
136	0xbd028f8d	-0.031875182
137	0x3d0a9bbd	0.03383993
138	0x3d325adc	0.04354368
139	0xbd5316bf	-0.051535364
140	0xbd1ffa96	-0.039057337
141	0xbd180bc3	-0.03712059
142	0xbc70f301	-0.014706374
143	0x3d17952b	0.037007492
144	0xbd0bc3df	-0.034122344
145	0x3d21f003	0.039535534
146	0xbce0d3bf	-0.027444718
147	0x3cc40e1d	0.023932511
148	0x3d205c25	0.039150376
149	0x3d20b00d	0.039230395
150	0x3d15b6ff	0.03655147
151	0x3d0c1e16	0.03420838
152	0x3d360562	0.044438727
153	0x3cd3fe6a	0.02587815
154	0xbd01d759	-0.031699512
155	0x3d22d368	0.039752394
156	0x3d2488e4	0.04016961
157	0x3d99beb1	0.075070746
158	0x3caae9e4	0.02086348
159	0xbbb2f96a	-0.0054618614
160	0x3dadad12	0.08480276
161	0x3bc324aa	0.0059552984
162	0x3d5f962c	0.054586574
163	0x3d203049	0.03910855
164	0x3d3fab7f	0.04679441
165	0x3db6d078	0.08926481
166	0x3bb968f3	0.005658263
167	0x3d12d8c5	0.03585126
168	0x3c621531	0.013798998
169	0xbc35e438	-0.011101775
170	0x3d2ff301	0.042956356
171	0xbd0a2fa0	-0.033736825
172	0xbc0250fe	-0.00795388
173	0x3bcab946	0.006186637
174	0x3bcecfaf	0.006311379
175	0x3d2e472c	0.042548344
176	0xbb3f54d5	-0.002919485
177	0x3d3e0a4b	0.046396535
178	0x3d235902	0.039879806
179	0x3d5bea1d	0.053690065
180	0x3d20f091	0.039291922
181	0x3d25e4f5	0.040501554
182	0xbc6c77df	-0.014432876
183	0x3d7d5742	0.061850794
184	0x3d50d2e9	0.05098239
185	0xbd458d3f	-0.048230406
186	0x3d3e23cc	0.046420857
187	0x3d1fe285	0.039034385
188	0xbcac9c65	-0.021070668
189	0xbd0d5dfa	-0.03451345
190	0x3d419e00	0.04726982
191	0x3cd55243	0.026040202
192	0xbc84850c	-0.016176723
193	0x3d1c753e	0.03819775
194	0x3d1593f9	0.03651807
195	0x3d2ca225	0.04214682
196	0x3d17ac59	0.037029598
197	0xbc8aecce	-0.01695862
198	0x3d392b3a	0.04520724
199	0x3d1344a0	0.035954118
200	0x3d375a49	0.044763837
201	0x3d070ef4	0.032973245
202	0x3c07b113	0.008281964
203	0x3d32a6f4	0.04361625
204	0x3d3197a9	0.043357525
205	0x3d51cf94	0.051223353
206	0x3d23c40f	0.039981898
207	0x3d4836bd	0.048880327
208	0xbcdeaa41	-0.027180793
209	0xbced86d4	-0.028994955
210	0xbcecf446	-0.028925072
211	0xbc655549	-0.013997384
212	0xbca23017	-0.019798322
213	0x3d22d133	0.03975029
214	0x3ccd79c2	0.025082473
215	0x3d80c825	0.062881745
216	0x3d1bd5bc	0.03804563
217	0xbcd5d723	-0.026103562
218	0x3ccbf0f9	0.024895178
219	0x3c77b956	0.015119871
220	0x3b7b4a88	0.0038343985
221	0x3dc5d384	0.09659484
222	0x3d204091	0.039124075
223	0x3d37adf5	0.044843633
224	0xba67c260	-0.0008840915
225	0x3d2acc68	0.041698843
226	0xbc60bd60	-0.0137170255
227	0x3d2dc48f	0.04242378
228	0x3d53e3c6	0.051730894
229	0x3d8a4af8	0.067525804
230	0x3d54ffc2	0.052001722
231	0x3d5b16ed	0.05348866
232	0xbc97182d	-0.018444145
233	0x3d5473e5	0.05186834
234	0x3d133fe9	0.03594962
235	0x3bab118a	0.0052205967
236	0xbd08e750	-0.03342372
237	0x3d15501e	0.03645336
238	0xbc152c1e	-0.009104757
239	0x3d22a4de	0.03970801
240	0x3d2875a8	0.04112783
241	0x3d2a1cdb	0.041531425
242	0xbca60091	-0.020263942
243	0x3d2ac478	0.041691273
244	0x3cd63531	0.02614841
245	0x3d2f4b3c	0.04279636
246	0xbd28635a	-0.041110374
247	0xbc69b849	-0.014265128
248	0x3df1ab08	0.118002
249	0x3cf8c058	0.030365154
250	0xbc4cb912	-0.012495296
251	0xbc8828e2	-0.016621057
252	0xbc9f0ee1	-0.019416275
253	0x3d30b5b8	0.04314205
254	0x3d41b9db	0.047296386
255	0x3be52c01	0.006993771

gat1.lin.weight f4 [256, 60]
0	0x3b83cbd3	0.0040221005
1	0x3cb400ee	0.0219731
2	0xbbcdcca6	-0.0062804995
3	0x3d1da5b8	0.03848812
4	0xbd3e45f7	-0.046453442
5	0x3df1088f	0.117692105
6	0x3c89b346	0.016809117
7	0x3d8f592c	0.0699943
8	0x3dde494e	0.108538255
9	0x3deb6afa	0.114950135
10	0xbdde5316	-0.10855691
11	0x3d277322	0.040881284
12	0xbd361dfa	-0.04446218
13	0x3d51cba4	0.051219597
14	0x3e048b3f	0.12943743
15	0xbc4e1ef4	-0.012580622
16	0x3c8ac26e	0.016938414
17	0xbd91683f	-0.070999615
18	0xbd24dca6	-0.04024949
19	0x3da1d006	0.079010054
20	0x3da33d32	0.079706565
21	0x3dd2c0aa	0.10290654
22	0x3d0ef2da	0.03489957
23	0x3caeba38	0.02132903
24	0xbdba5fcf	-0.09100305
25	0x3d1670f0	0.0367288
26	0x3d7f940a	0.06239704
27	0xbd3bdf38	-0.045867175
28	0xbcac7039	-0.021049606
29	0xbe0a3e1e	-0.13500258
30	0xbe03c5f0	-0.12868476
31	0xbd293e8c	-0.041319415
32	0x3b12042c	0.0022280319
33	0xbd868201	-0.06567765
34	0x3e04f965	0.12985761
35	0xbd4f7886	-0.05065205
36	0x3d736168	0.059419066
37	0x3d42ffb6	0.047607146
38	0xbd9ce306	-0.07660489
39	0xbaceb424	-0.0015770239
40	0x3bf76ad8	0.0075505786
41	0x3dd44060	0.10363841
42	0x3e061e38	0.13097465
43	0x3e03cabf	0.1287031
44	0x3d1bb791	0.03801686
45	0xbd55274a	-0.052039422
46	0x3d035022	0.032058842
47	0xbda4b53b	-0.080423795
48	0xbd91cabc	-0.07118747
49	0xbdb24eae	-0.08706413
50	0x3ceeb0a3	0.029136961
51	0x3de515f9	0.111858316
52	0x3d33b6d9	0.04387555
53	0xbdcee6c0	-0.10102606
54	0x3e023f8c	0.12719554
55	0x3dfa60ae	0.122254714
56	0x3e1ea534	0.15492707
57	0xbd9e77b2	-0.07737674
58	0x3cd92e19	0.026511239
59	0xbdf47c45	-0.11937765
60	0x3c5a50ab	0.013324897
61	0xbd523410	-0.051319182
62	0x3dd602f4	0.10449782
63	0xbe11abe3	-0.14225726
64	0x3cd17e1e	0.025572833
65	0xbc043d36	-0.008071234
66	0x3c8ccf9e	0.017188843
67	0x3d79201e	0.060821645
68	0xbdff2588	-0.124583304
69	0x3dc60640	0.09669161
70	0x3e00b575	0.1256922
71	0xbe057b51	-0.13035323
72	0xbdf6b7a9	-0.12046749
73	0x3e0023a7	0.125136
74	0xbd769b34	-0.060206607
75	0x3ca2359a	0.01980095
76	0x3d520038	0.05126974
77	0x3da2b10c	0.07943925
78	0xbda491f4	-0.08035651
79	0x3e05b919	0.1305889
80	0x39ad8268	0.00033094292
81	0xbd419116	-0.047257505
82	0x3d93df04	0.07220271
83	0x3d7b5426	0.061359547
84	0xbca657d6	-0.020305555
85	0xbd61ca8c	-0.055124804
86	0xbe01b319	-0.12665977
87	0xbd375d0e	-0.04476648
88	0x3cf3de58	0.029769108
89	0xbdcf0a7c	-0.101094216
90	0x3e01adaf	0.12663911
91	0xbdad52f2	-0.08463086
92	0x3dad3e68	0.08459169
93	0x3dfbc874	0.12294093
94	0x3dfd456a	0.12366755
95	0xbde87784	-0.11350921
96	0x3dd80587	0.10547929
97	0xbbe9eca0	-0.0071388036
98	0xbda0ed0e	-0.078577146
99	0xbda241dc	-0.07922718
100	0xbd465a2e	-0.048425846
101	0x3dec2116	0.11529748
102	0xbd039321	-0.032122735
103	0x3bcb8163	0.0062104925
104	0xbc999066	-0.018745612
105	0xbd0d9376	-0.034564458
106	0xbd9a5e58	-0.07537526
107	0x3d9b45ec	0.07581696
108	0xbd9ea0f8	-0.07745546
109	0xbbd2117e	-0.0064107766
110	0xbd189930	-0.037255466
111	0xbcccc71c	-0.024997286
112	0x3e07cbcb	0.13261335
113	0x3ddabe8e	0.10680877
114	0x3e1a4d49	0.15068544
115	0x3d17c68a	0.037054576
116	0xbbeb7db1	-0.0071866144
117	0x3ce81711	0.028331311
118	0x3df3b949	0.11900575
119	0xbdbc68d3	-0.09199681
120	0x3d58eeba	0.052962042
121	0xbcd35dd9	-0.025801586
122	0x3db67243	0.089085124
123	0x3ce8241a	0.028337527
124	0xbceffbbe	-0.029294845
125	0x3dc44b5c	0.09584686
126	0x3c4c6224	0.01247457
127	0x3e00da6b	0.1258332
128	0x3cbd154e	0.023081448
129	0x3db6d66a	0.08927615
130	0x3d536ee8	0.05161944
131	0xbd40d13e	-0.04707455
132	0x3d9dd707	0.07707029
133	0x3ba0c04a	0.004905735
134	0xbc97b4ec	-0.018518887
135	0xbd08725c	-0.033312187
136	0xbdc157cc	-0.09440574
137	0x3df8569d	0.12125895
138	0xbdc55050	-0.09634459
139	0x3c92b24c	0.017907284
140	0x3d4f5908	0.050622016
141	0x3df8b940	0.12144709
142	0xbd59428e	-0.053041987
143	0x3dad5614	0.08463684
144	0xbd93eff9	-0.072235055
145	0x3dd2248c	0.10260877
146	0x3d992bbe	0.07479046
147	0xbdf2c41e	-0.11853813
148	0x3d7825bd	0.060582865
149	0x3cda7392	0.026666436
150	0x3cba68b4	0.022755004
151	0x3d856348	0.06513077
152	0xbbb0fbc8	-0.0054011084
153	0x3d27032a	0.0407745
154	0xbcac4d13	-0.021032846
155	0x3dbf3846	0.09336905
156	0x3da3e596	0.080027744
157	0xbcbc92b6	-0.023019176
158	0x3d0c1efe	0.034209244
159	0x3de445d8	0.11146134
160	0xbe080e15	-0.13286622
161	0x3dd9f9f0	0.10643375
162	0x3cdf8773	0.027286267
163	0x3dacdb2e	0.08440243
164	0xbd86d532	-0.065836325
165	0x3ceb377f	0.028712986
166	0xbd12f20c	-0.035875365
167	0xbd4de748	-0.050269395
168	0x3dfaa975	0.122393526
169	0x3df1c4a9	0.11805088
170	0xbca671f8	-0.020318016
171	0xbc880a7b	-0.01660656
172	0xbd698f0a	-0.05702118
173	0x3e066133	0.13123016
174	0x3e16be35	0.14720996
175	0x3d735c1a	0.059414007
176	0xbc9b65bd	-0.018969411
177	0x3d1a7161	0.037705783
178	0x3e102012	0.14074734
179	0x3e002fcb	0.12518232
180	0x3ddca5a2	0.107737795
181	0xbc02b98e	-0.00797881
182	0x3d39f133	0.04539604
183	0xbc3d91a1	-0.011570365
184	0x3c692363	0.014229628
185	0xbd699697	-0.05702838
186	0x3db9c606	0.09070973
187	0x3d842362	0.06452061
188	0x3d2f711c	0.04283248
189	0xbcafa690	-0.021441728
190	0x3d938350	0.0720278
191	0xbd9d3c6b	-0.076775394
192	0x3d9ea2ec	0.07745919
193	0x3d2328fe	0.039834015
194	0xbde1a180	-0.11017132
195	0x3bedc8a0	0.0072565824
196	0xbc0c18ee	-0.008550866
197	0xbd91cfba	-0.07119699
198	0xbdb1e20c	-0.08685693
199	0xbd75d94c	-0.060021684
200	0x3d0cca92	0.034372874
201	0xbdedae6a	-0.116055325
202	0x3c717f20	0.014739782
203	0xbc9d0597	-0.019167705
204	0xbdbf6eb4	-0.09347287
205	0xbdaccf73	-0.08438005
206	0x3d9125aa	0.07087262
207	0xbd713a8a	-0.058893718
208	0xbdd0914e	-0.10183965
209	0x3c3c3ee6	0.0114896055
210	0x3db9b6b3	0.0906805
211	0x3d5a8b8a	0.05335573
212	0x3cf8cdd6	0.030371588
213	0xbda0a171	-0.078432925
214	0xbd34185e	-0.04396855
215	0x3d18b034	0.037277415
216	0x3df60870	0.12013328
217	0x3dff640b	0.124702536
218	0x3dd5bee8	0.10436803
219	0x3d9c99ac	0.07646498
220	0x3b796afe	0.0038058157
221	0xbdf032d4	-0.11728445
222	0x3db00b1d	0.0859587
223	0x3e06cfdc	0.1316523
224	0x3d31c3e4	0.043399706
225	0x3d485315	0.04890736
226	0xbdc11acb	-0.094289385
227	0x3ded3f4f	0.11584341
228	0xbdcff999	-0.10155029
229	0xbca053f2	-0.019571278
230	0x3cf0ba7a	0.029385794
231	0x3dd11873	0.102097414
232	0xbd119f31	-0.035552207
233	0x3d705e48	0.058683664
234	0x3de128de	0.10994123
235	0x3d8d9f82	0.06915189
236	0xbca5521c	-0.020180754
237	0x3d1fbcc2	0.038998373
238	0xbdec097e	-0.11525248
239	0x3d012e7a	0.031538464
240	0xbe1e909f	-0.15484856
241	0x3d329a95	0.043604452
242	0x3d7fee33	0.062483024
243	0xbcab6e05	-0.020926485
244	0xbe1177f9	-0.14205922
245	0xbcf76e88	-0.030204073
246	0xbc1a010c	-0.009399664
247	0x3d02cc9e	0.03193342
248	0xbddfff7e	-0.10937403
249	0xbccfca8c	-0.025365137
250	0xbde0bd73	-0.109736346
251	0xbdc29e54	-0.09502855
252	0x3dae9ece	0.08526383
253	0x3d93cf0e	0.07217227
254	0x3d81d306	0.06339078
255	0x3d838314	0.064214855

gat2.att_src f4 [1, 1, 32]
0	0xbd118538	-0.035527438
1	0xbe914c92	-0.2837873
2	0x3e41ae10	0.18914056
3	0x3f1171e3	0.568144
4	0xbdb93042	-0.090424076
5	0xbe8cc5b7	-0.27494594
6	0xbe680390	-0.22657609
7	0x3ee72013	0.45141658
8	0xbf1f56b5	-0.6224168
9	0x3e99976d	0.2999834
10	0x3e7f3040	0.2492075
11	0x3f002a6e	0.5006474
12	0x3e9e4c93	0.30917796
13	0xbe3ae7ba	-0.18252459
14	0x3e8d55ee	0.27604622
15	0x3d6ad1b1	0.057328884
16	0xbe8cbd68	-0.27488256
17	0x3e89928b	0.26869616
18	0xbe65e2c8	-0.22449791
19	0x3da1bf53	0.0789782
20	0xbd0f147c	-0.034931645
21	0x3ed156bd	0.4088649
22	0xbf1ef1f6	-0.62087953
23	0x3e6f6310	0.23377633
24	0x3e9f17f7	0.3107297
25	0x3e30d547	0.17268859
26	0xbe7a744f	-0.2445843
27	0xbeca9840	-0.39569283
28	0xbed51269	-0.41615608
29	0xbe1c08e4	-0.15237767
30	0x3ebb1cca	0.36545402
31	0xbf04d0e0	-0.5188122

gat2.att_dst f4 [1, 1, 32]
0	0xbe8af6e8	-0.271415
1	0xbe2e2b43	-0.1700869
2	0x3ee018f9	0.43769053
3	0xbdd4e2c8	-0.103948176
4	0x3e060d93	0.13091116
5	0x3e5c914e	0.21539804
6	0xbd1928bc	-0.037392363
7	0x3db9c257	0.090702705
8	0xbe963115	-0.29334322
9	0xbe5de4dc	-0.21669334
10	0xbe447091	-0.19183566
11	0xbe7371f8	-0.23773944
12	0xbe0d7889	-0.13815512
13	0x3e7260e5	0.23669775
14	0x3e187d93	0.14891653
15	0x3ee785f8	0.45219398
16	0x3e4f55b4	0.20247537
17	0xbe83b0f4	-0.25720942
18	0x3ebbb70f	0.366631
19	0xbe8daaa1	-0.27669242
20	0x3e8a0842	0.26959425
21	0x3e99a683	0.3000985
22	0x3ca53458	0.020166561
23	0x3db01403	0.08597567
24	0xbe388d85	-0.18022735
25	0xbd1f8f3d	-0.038954962
26	0x3ee9672e	0.45586532
27	0x3edcfda6	0.43162268
28	0x3ee575a9	0.4481633
29	0x3ead3e6b	0.33836684
30	0x3cfe5c00	0.031049728
31	0x3e279618	0.1636585

gat2.bias f4 [32]
0	0x3d259873	0.04042859
1	0xbcd4f20d	-0.025994325
2	0x3d24729f	0.040148374
3	0x3bd3a113	0.0064584105
4	0xbc9745f0	-0.018465966
5	0xbcbf2218	-0.023331687
6	0x3d10f9a1	0.035394315
7	0x3d1d2186	0.03836205
8	0x3d7c56fa	0.061606385
9	0x3cb443e6	0.022005033
10	0xbd150b42	-0.03638769
11	0xbadbaa1c	-0.001675907
12	0xbcc0e05c	-0.023544483
13	0xbce131c2	-0.027489547
14	0x3d0f5b5b	0.034999233
15	0xbd10b254	-0.035326317
16	0x3d1ffa54	0.03905709
17	0x3d1ab277	0.037767854
18	0xbbc86a9f	-0.006116226
19	0xbd23e86d	-0.04001658
20	0x3d059f2a	0.032622494
21	0x3d13a2ff	0.036044117
22	0x3d9f846c	0.07788929
23	0xbd20278f	-0.039100226
24	0x3d45def6	0.048308335
25	0x3d2767d5	0.040870506
26	0x3d504789	0.05084947
27	0x3ce374cb	0.027765652
28	0x3d152bbf	0.036418673
29	0x3d1b1de3	0.0378703
30	0x3d12a970	0.03580612
31	0xbd347711	-0.044058863

gat2.lin.weight f4 [32, 256]
0	0x3d759c5a	0.05996356
1	0xbd668fcb	-0.056289475
2	0xbdb548f3	-0.088518046
3	0x3d25087b	0.04029129
4	0xbd264ac6	-0.040598653
5	0xbe3114f4	-0.17293149
6	0x3de65f68	0.11248666
7	0x3dddf74a	0.10838182
8	0xbdcdf9ca	-0.10057409
9	0x3dbe1ca7	0.09282809
10	0xbd25e856	-0.040504776
11	0x3ddee589	0.10883624
12	0xbdcb9b6d	-0.099417545
13	0x3db526ae	0.08845268
14	0x3d76e3d5	0.06027587
15	0x3e15b2e6	0.14619026
16	0x3c8d9b50	0.017285973
17	0x3dd53558	0.10410565
18	0x3c445057	0.011982045
19	0x3cd2ebd4	0.025747217
20	0x3d20f7bf	0.03929877
21	0xbcf54101	-0.029938223
22	0x3d124cf2	0.035717912
23	0x3e044dea	0.12920347
24	0x3e0d6bbe	0.13810632
25	0x3d5a7e5a	0.053343154
26	0x3da5ecf3	0.08101835
27	0x3d01218d	0.031526137
28	0xbba49699	-0.0050228355
29	0x3dce9359	0.10086698
30	0x3da8ca84	0.08241752
31	0x3d041ec8	0.032255918
32	0x3d04a653	0.03238518
33	0x3d750e06	0.059827827
34	0x3dfa2072	0.1221322
35	0xbe57e80f	-0.21084617
36	0x3d1f53bb	0.03889821
37	0x3da24fc0	0.07925367
38	0x3d82b8dc	0.063829154
39	0x3e0c179a	0.13680878
40	0x3d025f3e	0.03182911
41	0x3c6dbc61	0.014510245
42	0x3dae0b7b	0.084982835
43	0x3d2ede17	0.04269227
44	0xbe098dc3	-0.13432984
45	0x3dacbff1	0.084350474
46	0xbafda9b6	-0.0019352946
47	0x3bc4ac7b	0.0060020066
48	0xbd99a7fe	-0.07502745
49	0x3c98c1d0	0.018647105
50	0x3e23cbe0	0.15995741
51	0x3e0c3a69	0.13694157
52	0xbdbabcfc	-0.09118077
53	0xb9c319c0	-0.00037212484
54	0x3deb8a76	0.11501019
55	0xbbdb004f	-0.0066833864
56	0x3e01d94e	0.12680551
57	0x3d96292d	0.073320724
58	0xbdc036fc	-0.093854874
59	0xbd5d07f5	-0.053962667
60	0xbd4aa1c6	-0.049470685
61	0xbc1375d7	-0.009000263
62	0x3d8abc17	0.067741565
63	0x3dd69806	0.10478215
64	0x3e237fd3	0.1596673
65	0x3d945fd3	0.072448395
66	0x3e1033b5	0.14082225
67	0x3e003f5b	0.12524168
68	0xbd6fa250	-0.058504403
69	0x3c5dfd71	0.013549195
70	0x3d89eb08	0.06734282
71	0x3cddac23	0.02705962
72	0xbda6b1f1	-0.081394084
73	0x3dbc5906	0.091966674
74	0xbd6c7e9d	-0.057737935
75	0xbd8d1942	-0.06889583
76	0x3e1c9c35	0.15293963
77	0x3dcb1211	0.09915555
78	0xbccb2106	-0.02479602
79	0xbd6053cd	-0.05476742
80	0xbdef9c36	-0.11699717
81	0xbdfb79b4	-0.122790724
82	0xbc52f618	-0.012876056
83	0xbdc93870	-0.09825218
84	0x3dcf75c6	0.101298854
85	0x3df919d7	0.12163132
86	0xbcbfac98	-0.023397729
87	0xbdc80d03	-0.09768107
88	0xbd015286	-0.03157284
89	0x3d1683df	0.036746856
90	0xbcbd36fd	-0.02309751
91	0xbce37588	-0.027766004
92	0x3e148f06	0.14507684
93	0xbd0071b8	-0.03135845
94	0xbe25cc6a	-0.16191259
95	0xbd867134	-0.065645605
96	0x3dfaf26a	0.12253268
97	0xbdc21bec	-0.09477982
98	0xbca328b6	-0.019916873
99	0x3e096dce	0.13420793
100	0xbd8d1a11	-0.068897374
101	0xbdfc29ec	-0.123126835
102	0x3cc1280e	0.02357867
103	0xbe64e9f2	-0.22354868
104	0x3e15c12c	0.1462447
105	0x3ab11ffa	0.0013513558
106	0x3dbc61cc	0.09198341
107	0xbdaefb53	-0.0854403
108	0xbe265324	-0.16242653
109	0x3e0b249e	0.13588187
110	0xbd5d8a4c	-0.05408697
111	0x3cbccd06	0.023046982
112	0xbcfab5cd	-0.030604267
113	0x3d8b382a	0.06797822
114	0xbbbc9e7e	-0.0057561984
115	0xbdf20a15	-0.11818329
116	0xbb8125b2	-0.003941261
117	0x3d87ad16	0.066248104
118	0xbd405a78	-0.046961278
119	0x3d795e28	0.06088081
120	0xbd89490d	-0.067033865
121	0xbac18ebc	-0.001476727
122	0x3d71f85d	0.05907475
123	0x3da788aa	0.081803635
124	0x3e14ccd7	0.14531265
125	0xbc23a116	-0.009987136
126	0xbe2610d7	-0.16217361
127	0x3e17c48f	0.14821075
128	0xbd1dd05a	-0.038528778
129	0x3d75f4ff	0.0600481
130	0x3de68144	0.11255124
131	0xbe020e35	-0.12700732
132	0xbe0e851f	-0.13917969
133	0x3e0a5530	0.13509059
134	0x3d1f327c	0.038866505
135	0x3dcf4fad	0.10122619
136	0xbdefde90	-0.11712372
137	0xbd200a57	-0.03907236
138	0x3e0efbda	0.13963261
139	0x3d797e4a	0.060911454
140	0x3d5adfdc	0.053436145
141	0xbdab6979	-0.08369727
142	0x3ba55dca	0.005046581
143	0xbd793a4b	-0.060846608
144	0xbdd18b86	-0.1023169
145	0x3df37fbd	0.118895985
146	0x3db04cb4	0.0860838
147	0xbdf173f5	-0.11789695
148	0x3e21f798	0.15817106
149	0xbda5b2b8	-0.080907285
150	0x3d8a445a	0.06751318
151	0x3e137956	0.14401755
152	0x3e110487	0.14161883
153	0x3d8efaa1	0.069813974
154	0x3cd10156	0.025513332
155	0x3cf2f606	0.029658329
156	0xbd3c82b3	-0.046023082
157	0x3dd398a6	0.1033185
158	0xbdb045d9	-0.086070724
159	0x3d44f53c	0.048085436
160	0xbc98614c	-0.018601082
161	0xbd9fa4c1	-0.07795096
162	0x3cd9a090	0.02656582
163	0x3e201254	0.15631992
164	0x3af92c3e	0.0019010378
165	0xbd4acd87	-0.049512412
166	0xbd5f410d	-0.054505397
167	0xbd753a54	-0.05987008
168	0xbbc008ae	-0.0058604097
169	0xbdfd5e29	-0.12371475
170	0x3d94c468	0.07264024
171	0x3df6dc41	0.12053729
172	0xbd36acd8	-0.04459843
173	0x3e176af5	0.14786895
174	0x3c5c0bf8	0.013430588
175	0xbcd34bd7	-0.025793
176	0x3df38ee1	0.11892486
177	0x3d8d4599	0.0689804
178	0x3d5440a5	0.051819462
179	0x3e22e414	0.15907317
180	0x3c84335c	0.016137771
181	0x3d47146d	0.048603464
182	0x3da6c7fc	0.08143613
183	0x3e31c3e0	0.17359877
184	0x3dfd7ed0	0.12377703
185	0xbd81a628	-0.0633052
186	0x3e269900	0.16269302
187	0x3de46345	0.11151747
188	0xbb498bef	-0.0030753573
189	0xbe14ae99	-0.14519729
190	0xbd80b444	-0.06284383
191	0x3de8d46e	0.11368643
192	0xbcf67e08	-0.030089393
193	0xbd132736	-0.035926066
194	0x3df25b41	0.118338116
195	0x3e1a0df7	0.1504439
196	0x3d828175	0.06372348
197	0x3ded0ccb	0.11574706
198	0x3e217fd9	0.15771426
199	0xbd3d0e7b	-0.046156388
200	0x3b988a89	0.0046551866
201	0xbdc3ed40	-0.09566736
202	0xbe1c3253	-0.15253572
203	0x3ddac3ec	0.106819004
204	0x3c161f35	0.009162714
205	0x3e20a96a	0.15689626
206	0x3dba4f0c	0.09097108
207	0xbdabb54e	-0.083841905
208	0xbe003fd0	-0.12524343
209	0xbda991ff	-0.082798
210	0xbcf90477	-0.030397637
211	0xbc669463	-0.014073464
212	0xbb67bfd6	-0.0035362146
213	0x3d9c3f69	0.07629282
214	0x3d73f21e	0.059557073
215	0x3e070e1a	0.13188973
216	0xbdb1b8df	-0.086778395
217	0xbdadfb74	-0.084952265
218	0x3e118a37	0.14212881
219	0xbdf57170	-0.11984527
220	0xbceed060	-0.029152095
221	0x3e5753a7	0.21028005
222	0x3d82e8df	0.06392073
223	0x3ca60236	0.020264726
224	0xbdebb8fc	-0.11509892
225	0xbd8d0e99	-0.0688755
226	0xbe45e6b5	-0.19326289
227	0xbd489555	-0.04897054
228	0xbd3d9c0d	-0.0462914
229	0xbdb4aae4	-0.08821657
230	0xbda8a630	-0.08234823
231	0x3e23608e	0.15954801
232	0xbdf91fe0	-0.12164283
233	0x3dc16232	0.094425574
234	0x3db90acb	0.09035262
235	0x3b8ad6f3	0.0042370497
236	0xbdeadb30	-0.11467588
237	0xbd79faab	-0.06103007
238	0xbce7bff4	-0.028289773
239	0x3dd478d1	0.103746064
240	0x3dfe1eaf	0.12408196
241	0xbdb3ccee	-0.087793216
242	0xbe52f7fe	-0.20602414
243	0x3d03c9fc	0.03217505
244	0x3db5fb06	0.088857695
245	0x3d1094a2	0.035297997
246	0x3c43b2fb	0.011944528
247	0x3da47454	0.0803
248	0x3dc5632b	0.096380554
249	0x3da3e7c8	0.08003193
250	0x3dc73c33	0.09728279
251	0xbe1c3bb7	-0.15257154
252	0xbde3ba5b	-0.11119529
253	0xbc28bafe	-0.010298489
254	0x3e1dd3df	0.15412854
255	0xbdd59f9e	-0.10430835

fc.0.weight f4 [16, 32]
0	0x3e19a7e5	0.15005453
1	0x3db5c2e3	0.08875062
2	0xbd7b2329	-0.06131283
3	0xbcc454ce	-0.02396622
4	0xbdf52f38	-0.11971897
5	0xbd206647	-0.03916004
6	0xbcb14292	-0.021638189
7	0x3e333436	0.17500386
8	0x3dcf86dd	0.10133145
9	0x3d7b1f61	0.061309222
10	0xbcaf19a4	-0.021374531
11	0x3d34ca69	0.044138346
12	0xbd6afcf7	-0.057370152
13	0x3d2ca90c	0.042153403
14	0x3e106024	0.14099175
15	0xbc0d0eed	-0.008609516
16	0x3d38ecb6	0.04514762
17	0x3e2983ad	0.16554137
18	0x3a1367a5	0.0005623049
19	0xbe1f06c9	-0.15529932
20	0x3de75f4d	0.11297474
21	0x3e2c662b	0.16835849
22	0xba1a87fc	-0.0005894897
23	0xbd04a040	-0.03237939
24	0xbd8d1195	-0.06888119
25	0x3d3a9424	0.045551434
26	0x3cd1da5c	0.025616817
27	0x3e301430	0.17195201
28	0x3dd398ac	0.10331854
29	0x3e1ae9f5	0.1512831
30	0x3e0c50b4	0.13702661
31	0xbe37e563	-0.17958598
32	0x3e33e69b	0.17568438
33	0xbe25655b	-0.16151945
34	0xbd742278	-0.059603184
35	0x3cf5492a	0.029942114
36	0xbdcf8272	-0.10132302
37	0xbe4695b8	-0.1939305
38	0xbe084746	-0.13308439
39	0x3dfea059	0.12432928
40	0x3d8d4034	0.068970114
41	0x3e2faa92	0.17154911
42	0xbc957cdf	-0.01824802
43	0xbdf8f903	-0.1215687
44	0xbdbccbda	-0.09218569
45	0xbe48b69b	-0.19600908
46	0xbdd72c9c	-0.105065554
47	0xbe62a4e9	-0.2213322
48	0x3da601c7	0.08105808
49	0xbcfca28e	-0.03083923
50	0xbe082a9f	-0.13297509
51	0xbe141fbb	-0.14465229
52	0xbca081af	-0.019593088
53	0x3e17ac82	0.148119
54	0x3d598fcd	0.053115655
55	0xbdd43b6e	-0.10362898
56	0x3d88a94b	0.06672915
57	0x3e2edf25	0.1707731
58	0x3d1d5504	0.038411155
59	0xbd947ab3	-0.072499655
60	0x3d2202a8	0.039553314
61	0xbdddca59	-0.108296104
62	0x3e03d097	0.1287254
63	0x3da6c7cd	0.08143578
64	0xbdacd07c	-0.08438203
65	0xbe49d6ff	-0.19710921
66	0x3e41cb35	0.18925174
67	0x3d155c3d	0.03646492
68	0x3df230d7	0.11825722
69	0xbd8eebcd	-0.06978569
70	0x3e1a8d8d	0.1509306
71	0x3dbdc12d	0.09265361
72	0x3e0f8ca0	0.14018488
73	0xbdad8b37	-0.08473819
74	0xbd47805d	-0.0487064
75	0x3dc1db71	0.09465683
76	0xbc5f57ba	-0.0136317555
77	0xbe2bd656	-0.16780981
78	0xbd9cc7dc	-0.07655308
79	0x3da6ca13	0.08144011
80	0x3e03e118	0.12878835
81	0xbdbd7d70	-0.09252441
82	0xbdbfb859	-0.093613334
83	0x3db1dfa3	0.086852334
84	0x3df6a50d	0.120432
85	0x3db3afbe	0.087737545
86	0x3deb608b	0.114930235
87	0xbdfd6261	-0.1237228
88	0x3cd13133	0.025536155
89	0x3d5a432e	0.053286724
90	0x3e14a1e2	0.14514878
91	0xbd5f4a46	-0.054514192
92	0x3c047e45	0.008086746
93	0x3dd9017c	0.10595986
94	0x3e439880	0.19101143
95	0x3d01276c	0.031531736
96	0xbd91a5d3	-0.071117066
97	0x3db83aaa	0.08995564
98	0xbd6dfc6e	-0.058102064
99	0xbddc7880	-0.10765171
100	0xbe383079	-0.17987241
101	0xbdad650a	-0.08466537
102	0xbd91b642	-0.07114841
103	0x3c42aa61	0.011881442
104	0x3da21f91	0.07916177
105	0xbe05cbec	-0.13066071
106	0x3d8dcd87	0.06923967
107	0xbc669b49	-0.014075109
108	0xbc7090af	-0.014682933
109	0x3e0d5e95	0.13805611
110	0xbe0caa15	-0.13736756
111	0x3ca9ce1e	0.020728167
112	0x3d1772b2	0.036974616
113	0x3b8094ed	0.0039240033
114	0x3e0e6f60	0.13909674
115	0x3dbfc960	0.09364581
116	0xbda77ae5	-0.08177737
117	0xbd7d2c16	-0.06180962
118	0x3dacd179	0.08438391
119	0xbca259e4	-0.019818254
120	0xbd449ceb	-0.04800121
121	0xbdff824f	-0.12476026
122	0xbcdd3116	-0.027000945
123	0x3ce61a12	0.028088603
124	0x3d5ef27b	0.054430466
125	0x3dd436bd	0.10362003
126	0xbe195f7d	-0.14977832
127	0x3c7bef6b	0.015376906
128	0x3c7551bc	0.0149731
129	0x3d8ca043	0.06866505
130	0x3d971ecc	0.07378921
131	0x3e1a165b	0.1504759
132	0x3d42979d	0.04750787
133	0xbdd05cc6	-0.10173945
134	0x3e19e187	0.15027438
135	0xbd50f237	-0.051012244
136	0xbd8a166c	-0.06742558
137	0x3e2b7c59	0.16746654
138	0xbd58e10a	-0.05294899
139	0x3d8dba0b	0.069202505
140	0xbe2d75da	-0.16939488
141	0x3dd04c65	0.10170821
142	0x3e013380	0.12617302
143	0xbdbc8946	-0.0920587
144	0x3cf1dbc8	0.029523745
145	0x3df58d48	0.11989838
146	0xbdd72041	-0.10504199
147	0xbdc06949	-0.093950815
148	0x3c21fbec	0.009886723
149	0xbdef0987	-0.11671739
150	0x3e0427c8	0.129058
151	0xbe403d25	-0.18773325
152	0x3e0efbc1	0.13963224
153	0xbbf56827	-0.0074892226
154	0xbb95c561	-0.0045706485
155	0xbe00174f	-0.12508892
156	0x3c098f62	0.0083960015
157	0x3e3ca55e	0.18422458
158	0xbdfbf682	-0.12302877
159	0x3db452ed	0.08804879
160	0x3d619f7f	0.055083748
161	0xbdc7af8d	-0.097502805
162	0xbdab93e5	-0.08377818
163	0x3ded387d	0.1158304
164	0xbd71cd0e	-0.059033446
165	0xbe27884d	-0.16360588
166	0x3d261f22	0.040557034
167	0x3e084d59	0.13310756
168	0x3e675cba	0.22593966
169	0xbaa2a2a2	-0.0012408087
170	0xbca6d310	-0.020364314
171	0x3e324c7d	0.1741199
172	0xbceec821	-0.029148163
173	0x3deb0c5b	0.11476966
174	0x3ca1736b	0.019708356
175	0xbdf0998b	-0.11748036
176	0x3e35a9fc	0.17740625
177	0x3d76b938	0.060235232
178	0x3d87f910	0.06639302
179	0xbe0df807	-0.13864146
180	0x3db75d44	0.08953336
181	0x3cda207d	0.02662682
182	0x3dc48e6c	0.09597477
183	0xbd5bf11e	-0.053696744
184	0x3c4d16d0	0.012517646
185	0x3d85f0ed	0.065400936
186	0xbc212d9f	-0.009837537
187	0x3dc05315	0.09390847
188	0x3df4f841	0.11961413
189	0x3c1d0ee5	0.009586071
190	0x3c057247	0.008144922
191	0xbc19bbc3	-0.009383145
192	0xbe0a55d4	-0.13509303
193	0xbcd9466b	-0.026522836
194	0xbc7efa4c	-0.015562605
195	0x3dbe317b	0.092867814
196	0xbe2c2f1a	-0.16814843
197	0xbd32c4dc	-0.04364477
198	0x3e0cb747	0.1374179
199	0x3e18d560	0.14925146
200	0xbe5688cb	-0.2095062
201	0x3d8c2bd9	0.06844301
202	0xbe171681	-0.14754678
203	0x3e107d3a	0.1411027
204	0xbce06029	-0.027389603
205	0x3e1cb6b1	0.15304066
206	0xbe36d8a9	-0.17856087
207	0x3d10d743	0.03536154
208	0x3dfa981d	0.122360446
209	0xbc679cc8	-0.014136501
210	0xbd3eaa3e	-0.046549074
211	0xbd54bedc	-0.05193983
212	0xbe272362	-0.16322091
213	0x3e20fde9	0.15721859
214	0x3d64e889	0.055885825
215	0xbdc1c619	-0.09461612
216	0xbd957a7e	-0.07298754
217	0xbdee0288	-0.116215765
218	0xbd93d0f6	-0.072175905
219	0xbdea3784	-0.1143637
220	0x3de3d222	0.11124064
221	0xbdbebd07	-0.09313398
222	0xbd8beade	-0.06831907
223	0x3cb7a1db	0.022416046
224	0x3d8beddc	0.068324775
225	0xbd18fed9	-0.037352417
226	0xbc7a5cea	-0.0152809415
227	0x3e0b9df4	0.13634473
228	0xbdeb4155	-0.114870705
229	0xbe0f8a8c	-0.14017695
230	0xbdd56a9c	-0.10420725
231	0xbe3e2ac3	-0.18571
232	0xbdf257b3	-0.118331335
233	0xb9bd81fe	-0.0003614574
234	0x3cd8e736	0.026477437
235	0xbdd6078e	-0.1045066
236	0xbe08eb13	-0.13370924
237	0xbc91ba65	-0.017789075
238	0x3e20a34f	0.15687297
239	0xbe0ae6c1	-0.13564588
240	0xbe13c1b7	-0.14429365
241	0xbdc86fc6	-0.09786944
242	0x3d94c596	0.07264249
243	0x3dd4c362	0.10388829
244	0x3da7e282	0.081975
245	0x3e1b7415	0.15181
246	0x3dacdc52	0.0844046
247	0xbdca6db1	-0.09884203
248	0xbe096d3e	-0.13420579
249	0xbbf52301	-0.0074809794
250	0x3e0c8eb8	0.13726318
251	0xbd48d347	-0.049029615
252	0x3d0b0ab5	0.033945758
253	0x3e247c0c	0.16062945
254	0xbe0fde55	-0.14049657
255	0x3d6f9841	0.05849481

fc.0.bias f4 [16]
0	0xbc9736d5	-0.018458763
1	0xbd909713	-0.07060065
2	0x3e2b3fb8	0.16723526
3	0xbdad637c	-0.08466241
4	0x3daced50	0.08443701
5	0xbe0481c4	-0.12940127
6	0xbe002753	-0.12515001
7	0xbde7a1b8	-0.11310142
8	0xbdee160f	-0.11625301
9	0xbdd04f07	-0.10171323
10	0x3e4e43c1	0.20143034
11	0x3e0ac154	0.13550311
12	0x3e03cffc	0.12872308
13	0xbe3634e0	-0.17793608
14	0xbc965e69	-0.018355565
15	0xbdbb9d02	-0.09160806

fc.2.weight f4 [1, 16]
0	0xbe714b66	-0.23563918
1	0xbe76b01e	-0.24090621
2	0xbdbcec35	-0.092247404
3	0xbe009421	-0.12556507
4	0xbe4e77cd	-0.20162888
5	0xbdb17eb6	-0.08666746
6	0x3e74941f	0.23884629
7	0x3c87fe41	0.01660073
8	0xbe7706a8	-0.24123633
9	0x3d8ce507	0.06879621
10	0xbd1e0d62	-0.03858698
11	0x3da23d79	0.07921881
12	0xbca2b954	-0.019863762
13	0x3e847265	0.25868526
14	0xbe10ffc3	-0.14160065
15	0x3d7c2148	0.061555177
