Jason/Model/pokemon_team_optimizer.pth (torch, 104546 bytes, 11 tensors)

gat1.att_src f4 [1, 4, 64]
0	0xbe94fd58	-0.29099536
1	0x3e6cfcaf	0.23143266
2	0xbb00f42b	-0.0019676785
3	0xbe55a490	-0.20863557
4	0xbe67e6f0	-0.2264669
5	0x3cc32a7c	0.023823969
6	0x3de657a2	0.112471834
7	0xbd961ff1	-0.07330311
8	0xbdc1a1f9	-0.09454722
9	0xbdfb09c7	-0.12257724
10	0x3e1290c9	0.14313044
11	0xbe0cb999	-0.13742675
12	0xbdcb9f9f	-0.09942555
13	0x3d31ddc5	0.043424387
14	0xbe90ec45	-0.2830526
15	0x3e03f98e	0.12888166
16	0xbe84285b	-0.2581204
17	0xbd53ecda	-0.05173955
18	0xbdbbb447	-0.091652445
19	0xbe03a0e1	-0.12854339
20	0xbe1fb779	-0.15597333
21	0xbe09806e	-0.13427898
22	0x3e72c73c	0.23708814
23	0x3e47048d	0.1943533
24	0x3e8381d2	0.25684983
25	0xbd6d88a8	-0.057991654
26	0xbd93cd59	-0.07216901
27	0xbe0490e0	-0.1294589
28	0x3e07b485	0.13252456
29	0xbe46a932	-0.1940048
30	0xbe02774a	-0.12740818
31	0xbe34f082	-0.17669871
32	0x3dce8f58	0.100859344
33	0xbe0eea5f	-0.13956593
34	0xbd55b3df	-0.05217349
35	0xbd91564f	-0.0709654
36	0xbe026647	-0.12734328
37	0x3da14c93	0.078759335
38	0xbc872ecf	-0.016501812
39	0x3c796328	0.015221395
40	0xbe1a263d	-0.15053649
41	0x3e177076	0.14788994
42	0x3d021547	0.031758573
43	0xbe9cfced	-0.30661717
44	0xbe2b9cd0	-0.16759038
45	0x3e72780f	0.23678611
46	0x3e8a1c41	0.2697468
47	0xbe280384	-0.16407591
48	0xbe23e911	-0.16006877
49	0x3e4de3f5	0.2010649
50	0x3ec2df65	0.38061062
51	0x3d99bbab	0.07506498
52	0x3e9bc382	0.30422598
53	0x3e82718d	0.25477257
54	0x3e03ce9e	0.12871787
55	0xbe5f013c	-0.21777815
56	0x3ddff6cd	0.109357454
57	0xbe90f8cd	-0.2831482
58	0xbb803cc9	-0.003913496
59	0x3e6ffa2d	0.23435278
60	0xbda441df	-0.080203764
61	0x3d47638a	0.048678912
62	0xbce736f3	-0.028224444
63	0x3db1255e	0.08649705
64	0xbda07166	-0.07834129
65	0x3e1245ee	0.14284489
66	0x3e482118	0.19543874
67	0xbe4c643a	-0.19960108
68	0xbca5d9f8	-0.020245537
69	0xbe75d23a	-0.24005976
70	0xbe02e7af	-0.12783693
71	0xbe0d49ac	-0.13797635
72	0xbe95db2a	-0.2926877
73	0x3d0cae37	0.03434583
74	0x3e158384	0.1460095
75	0x3de8efdf	0.11373877
76	0x3e90907a	0.28235227
77	0x3ea186ac	0.3154806
78	0x3e774bce	0.24150011
79	0xbe3d8699	-0.18508376
80	0xbdd71ad1	-0.10503162
81	0xbc8b57a9	-0.017009573
82	0xbe7971fd	-0.2435989
83	0xbe8d203f	-0.27563664
84	0xbe4f371d	-0.20235868
85	0x3e9142c0	0.2837124
86	0xbe00c670	-0.12575698
87	0xbdb6fa28	-0.08934432
88	0xbd1a1c0f	-0.037624415
89	0xbe4fc866	-0.2029129
90	0x3e9745e0	0.29545498
91	0xbe107bbd	-0.14109702
92	0x3e649392	0.22321919
93	0x3eb3faf9	0.35152414
94	0xbe8a50c9	-0.2701476
95	0xbea19b01	-0.3156357
96	0x3e4c2257	0.19934975
97	0x3e5db953	0.21652727
98	0xbe0eca7a	-0.13944426
99	0xbbabb0b4	-0.0052395705
100	0x3e11bc3b	0.1423196
101	0xbe0b66c6	-0.13613424
102	0xbe9ccb27	-0.30623743
103	0x3e85d20e	0.26136822
104	0x3e495b73	0.19663791
105	0xbe62360f	-0.22090934
106	0x3e3de2f0	0.18543601
107	0x3d40b399	0.047046278
108	0x3cc4058f	0.023928432
109	0x3e45b60e	0.1930773
110	0xbc2c9c57	-0.010535321
111	0x3e2c5aa4	0.16831452
112	0xbe0aa3d5	-0.1353906
113	0x3bdd260d	0.006748921
114	0x3dd9743a	0.106178716
115	0x3de6ccd1	0.112695344
116	0x3e6c7c4a	0.23094288
117	0x3e6086ec	0.21926469
118	0xbebb6c8a	-0.36606246
119	0x3da0bca0	0.07848477
120	0x3d92f18c	0.07174978
121	0xbe42a6d4	-0.19008952
122	0xbe2a5ba7	-0.16636525
123	0x3e07bb6c	0.1325509
124	0x3e91dd3f	0.2848911
125	0x3e61a7b4	0.2203663
126	0xbdaff227	-0.08591109
127	0xbd8fbdef	-0.07018649
128	0x3e4fe842	0.20303443
129	0xbdeca114	-0.11554161
130	0x3e546e13	0.20745115
131	0x3db5d66e	0.0887879
132	0x3e0b549c	0.13606495
133	0xbdd59ab6	-0.104298994
134	0xbd8859cb	-0.06657752
135	0xbe8e3148	-0.27771974
136	0x3e9d38ee	0.30707496
137	0x3b59737e	0.003318041
138	0xbe09cb5c	-0.13456482
139	0xbd29db0c	-0.041468665
140	0x3e382d57	0.17986046
141	0x3ccdde0b	0.025130292
142	0x3d835e73	0.06414499
143	0xbe378536	-0.1792191
144	0xbe2c4e57	-0.1682676
145	0x3e56a922	0.20962957
146	0x3e526d05	0.205494
147	0xbe947eb1	-0.29002908
148	0x3e0983de	0.1342921
149	0x3e4b4d89	0.19853796
150	0xbe6f4a38	-0.23368156
151	0xbc1c29eb	-0.009531478
152	0x3da79c9c	0.08184168
153	0xbe841dee	-0.25804085
154	0xbddd1f47	-0.10796981
155	0xbdd7b4fe	-0.105325684
156	0x3dd0c93d	0.10194633
157	0xbe9395a1	-0.28825095
158	0x3e6ba2a1	0.23011257
159	0x3dc1d8da	0.09465189
160	0xbe06f52b	-0.13179462
161	0x3d1b42b4	0.03790541
162	0x3e6c2929	0.23062576
163	0x3df1d291	0.118077405
164	0x3da41637	0.0801205
165	0x3e1790da	0.1480135
166	0xbd104ff8	-0.035232514
167	0xbe7f9dd5	-0.24962552
168	0xbdf07223	-0.1174052
169	0x3e9f2f9f	0.3109102
170	0xbe0aae5e	-0.13543078
171	0x3d8929f5	0.06697456
172	0xbe800538	-0.25003982
173	0x3c0f3886	0.008741504
174	0xbe2f30ce	-0.17108461
175	0xbdc3bd1a	-0.09557553
176	0x3e830bb6	0.25594872
177	0xbe24c096	-0.1608909
178	0xbc3d8d37	-0.011569313
179	0x3e4c9265	0.1997772
180	0xbea6ddd4	-0.32591116
181	0xbe28eed2	-0.16497353
182	0x3dd22bd2	0.10262264
183	0x3e605043	0.21905617
184	0xbe887f93	-0.2665983
185	0x3d4165cb	0.047216218
186	0x3eb2091d	0.34772578
187	0x3e378142	0.17920402
188	0xbe2aa403	-0.16664128
189	0xbe24c04a	-0.16088977
190	0xbe6e5901	-0.2327614
191	0xbdd21864	-0.102585584
192	0x3dba80ef	0.091066234
193	0x3dc5dee9	0.09661657
194	0x3e5658dc	0.20932335
195	0x3e988325	0.29787555
196	0x3e7285f9	0.23683919
197	0x3d863c0e	0.06554423
198	0xbd9e7a77	-0.07738202
199	0x3cf07866	0.029354285
200	0xbe935fc4	-0.28784
201	0xbe92b35e	-0.2865247
202	0x3ce97eaf	0.02850279
203	0xbbfcb24a	-0.0077116834
204	0xbe048cd2	-0.12944344
205	0xbdba14bd	-0.09085987
206	0x3e18400d	0.14868183
207	0xbe75b3fc	-0.2399444
208	0xbc5dac1d	-0.013529805
209	0xbe947cc6	-0.29001445
210	0xbe7373fb	-0.23774712
211	0x3d617383	0.0550418
212	0x3e32bd94	0.17455131
213	0x3de1102a	0.10989411
214	0x3e68cdd1	0.22734763
215	0xbd5687cf	-0.05237561
216	0xbe3cacfb	-0.18425362
217	0x3e0afa25	0.13571985
218	0x3d8b1a22	0.06792094
219	0x3e1b314a	0.15155521
220	0xbe9994cd	-0.29996338
221	0xbcba7de8	-0.022765115
222	0xbd328d5e	-0.04359185
223	0xbe566957	-0.20938621
224	0x3e16014b	0.1464893
225	0x3e1aec4a	0.151292
226	0xbe81fa14	-0.25386107
227	0xbd9645f0	-0.07337558
228	0x3dda3360	0.1065433
229	0xbe75c987	-0.24002658
230	0xbe52b945	-0.20578487
231	0xbe5601f0	-0.20899177
232	0x3d9247b9	0.07142586
233	0x3e46edf3	0.19426708
234	0x3e5c7b91	0.21531512
235	0xbdd4398f	-0.10362541
236	0xbe2f1ce0	-0.17100859
237	0x3c3831f7	0.011242381
238	0xbc4cd615	-0.012502213
239	0xbe813ae5	-0.25240245
240	0x3de6fd7a	0.112788156
241	0x3dee6c63	0.11641767
242	0xbe813fc0	-0.2524395
243	0x3e866ddd	0.26255694
244	0x3dfdc075	0.12390224
245	0x3d0c1298	0.03419742
246	0xbd79a83b	-0.060951453
247	0x3b1434eb	0.002261455
248	0xbdf91a4f	-0.12163221
249	0x3e0fb5ad	0.14034148
250	0xbc599e91	-0.013282434
251	0xbbf3b2d0	-0.0074370876
252	0x3c0dd38b	0.008656393
253	0x3dea65c2	0.1144519
254	0xbe303454	-0.17207462
255	0xbdbd91d5	-0.09256331

gat1.att_dst f4 [1, 4, 64]
0	0x3b8687e9	0.004105557
1	0x3e0021b2	0.12512854
2	0x3e2563d2	0.1615136
3	0xbe712ac0	-0.23551464
4	0xbd8b4567	-0.06800347
5	0xbebae1a6	-0.3650028
6	0x3e6933c2	0.2277365
7	0x3bcf40cf	0.0063248645
8	0x3e61d1b7	0.22052656
9	0xbdbad531	-0.09122694
10	0xbd546d60	-0.05186212
11	0x3e58afc0	0.21160793
12	0xbe4944f8	-0.19655216
13	0xbd4f4c1d	-0.050609697
14	0x3dbd93c8	0.09256703
15	0x3e481705	0.19540031
16	0x3dee0bca	0.11623342
17	0x3e72cc0b	0.23710649
18	0xbc8817a3	-0.016612833
19	0x3e963bf3	0.29342613
20	0xbe76a7f4	-0.24087507
21	0xbdc135b1	-0.09434069
22	0x3e028ee0	0.12749815
23	0x3e80a7a3	0.25127897
24	0x3ecc13cc	0.39858854
25	0xbe6e910f	-0.23297523
26	0xbe8e7b7b	-0.27828583
27	0x3dc29145	0.09500364
28	0x3e5a3130	0.21307826
29	0xbe6d8fb6	-0.23199353
30	0xbe87acf7	-0.2649915
31	0xbe4e414d	-0.20142098
32	0x3e8ccc33	0.27499542
33	0x3e45e48e	0.19325468
34	0xbdcca368	-0.09992105
35	0x3e244ae3	0.16044192
36	0xbe0f9c79	-0.14024533
37	0xbe249157	-0.16071068
38	0x3ead26e7	0.33818743
39	0x3dd2f53a	0.103006795
40	0x3c417d73	0.011809695
41	0x3d71decb	0.059050363
42	0x3dcb4ea0	0.09927106
43	0x3dedb259	0.11606283
44	0xbd9ae100	-0.075624466
45	0xbd8e2d94	-0.06942287
46	0x3e3f627b	0.18689911
47	0x3d5f1c98	0.05447063
48	0x3d068322	0.0328399
49	0xbe1bad2a	-0.15202776
50	0x3d1182ee	0.035525255
51	0xbe69f618	-0.22847784
52	0xbe8630ad	-0.26209012
53	0x3e5700a7	0.20996343
54	0x3e5e4741	0.21706869
55	0x3e219fee	0.15783665
56	0xbe6a5f7f	-0.22887991
57	0xbbfc241f	-0.0076947357
58	0x3e7f41b6	0.2492741
59	0x3de3f15b	0.11130019
60	0xbe39b7d6	-0.18136534
61	0xbdca324c	-0.098728746
62	0x3cecee5d	0.028922254
63	0x3c50259e	0.012704281
64	0x3df85dca	0.12127264
65	0xbde91004	-0.11380008
66	0x3e0723f1	0.13197304
67	0x3d8c254c	0.06843051
68	0x3e7bf9cf	0.24607013
69	0xbe197673	-0.14986591
70	0x3e6605f6	0.22463211
71	0x3d48fcf8	0.049069375
72	0xbe237240	-0.15961552
73	0x3e9f0738	0.31060195
74	0x3e3c67bd	0.18398948
75	0xbe2079fe	-0.15671536
76	0xbce0bbe4	-0.027433343
77	0x3e4641aa	0.19360986
78	0x3e3b05fc	0.18264002
79	0x3c1053c0	0.00880903
80	0xbd8c9abe	-0.06865452
81	0x3d2e050e	0.04248529
82	0x3dcf9ee9	0.101377316
83	0x3e84c681	0.25932696
84	0x3e3a6dd5	0.1820596
85	0xbdedf62f	-0.116192214
86	0xbd9351b0	-0.07193315
87	0xbe06a128	-0.13147414
88	0x3e430193	0.1904357
89	0xbd2dce6a	-0.04243318
90	0x3e69b579	0.22823133
91	0xbe2dc06b	-0.16967933
92	0x3eaeceee	0.3414225
93	0xbe91bb22	-0.28463084
94	0xbe631c69	-0.22178806
95	0x3b517a97	0.0031963938
96	0x3e86ddfd	0.2634124
97	0xbdb455de	-0.0880544
98	0xbd574eeb	-0.052565496
99	0xbce35471	-0.027750226
100	0xbd9a8935	-0.075457014
101	0xbe0490dd	-0.12945886
102	0xbd5d10ee	-0.053971224
103	0x3e02457d	0.1272182
104	0xbd89d14f	-0.067293756
105	0xbe86b4a3	-0.2630969
106	0xbe5b3b93	-0.21409445
107	0x3d6ec4ee	0.058293276
108	0x3dcbe0b0	0.09954965
109	0xbe54bd0f	-0.20775245
110	0x3e4c544e	0.19954035
111	0xbe08f4bf	-0.13374613
112	0x3ea2bac2	0.3178311
113	0x3d7fc26a	0.062441267
114	0x3e84e763	0.25957784
115	0x3e26b32f	0.1627929
116	0x3e71006a	0.23535314
117	0xbc3638fe	-0.011121986
118	0x3e2acf02	0.1668053
119	0xbd8a70e1	-0.06759811
120	0x3d6b2594	0.057408884
121	0xbd6d4811	-0.057930056
122	0xbe5ef168	-0.21771777
123	0xbe718529	-0.23585953
124	0x3e532ab3	0.20621757
125	0x3e3fe95d	0.18741365
126	0xbe1fd41f	-0.15608262
127	0x3dfc7dce	0.12328683
128	0x3d77af18	0.060469717
129	0xbdad5796	-0.08463971
130	0xbea48f9d	-0.32140818
131	0xbd9a4d44	-0.075342685
132	0x3d90a5ea	0.070628956
133	0xbd630cff	-0.055432316
134	0xbeb4c9aa	-0.35310107
135	0xbdb1bf46	-0.08679061
136	0xbe98039a	-0.29690248
137	0xbd8b4e97	-0.06802099
138	0x3dcfbe84	0.1014376
139	0xbe073b07	-0.13206111
140	0xbe064cc9	-0.13115229
141	0x3e35045f	0.17677449
142	0x3d71fc9f	0.05907881
143	0x3ec0fc91	0.37692693
144	0x3e067e7c	0.13134187
145	0x3da4911b	0.08035489
146	0x3e87d7c3	0.265318
147	0x3eb90395	0.36135545
148	0x3e95f1f8	0.2928617
149	0xbe0b7dd3	-0.13622217
150	0xbea98517	-0.33109352
151	0xbbaca38d	-0.00526852
152	0xbdab1c70	-0.083550334
153	0xbe990293	-0.29884776
154	0xbe830a33	-0.2559372
155	0xbeaeb24b	-0.34120402
156	0xbd908145	-0.07055906
157	0x3d902ba8	0.07039577
158	0xbdd5193e	-0.10405205
159	0x3e0b20ab	0.1358668
160	0x3e8e4399	0.27785948
161	0x3e9df3d4	0.3085009
162	0xbe343159	-0.1759695
163	0xbe9f5c66	-0.31125182
164	0x3e8e0011	0.27734426
165	0x3de538cc	0.11192474
166	0xbe429eac	-0.19005841
167	0xbe4c0267	-0.19922791
168	0xbd4dfa52	-0.050287552
169	0xbd427a32	-0.047479816
170	0xbcd5aaaa	-0.026082356
171	0x3e818f6a	0.2530473
172	0xbe81a4fd	-0.2532119
173	0x3dbfaa50	0.093586564
174	0x3e3de358	0.18543756
175	0xbda6e484	-0.08149055
176	0xbe975664	-0.29558098
177	0xbe2f05a0	-0.1709199
178	0xbe386aba	-0.18009463
179	0x3e3e6eec	0.18597001
180	0x3e57f60a	0.2108995
181	0xbe920374	-0.2851826
182	0x3e8a2543	0.26981553
183	0x3c6ac7c4	0.014329854
184	0x3ca388d8	0.019962713
185	0x3d783f13	0.060607027
186	0x3cf8ddc8	0.030379191
187	0xbe2e70ed	-0.17035265
188	0x3e936c84	0.28793728
189	0x3de037d0	0.109481454
190	0x3d33038c	0.043704554
191	0xbe8578cf	-0.26068732
192	0x3e41152f	0.18855737
193	0xbe159ee4	-0.14611393
194	0x3e4f29ff	0.20230864
195	0xbe78941c	-0.24275249
196	0x3e24b18e	0.16083357
197	0x3db63bdf	0.08898138
198	0xbe12696d	-0.14298029
199	0x3e14a134	0.14514619
200	0x3d4a74eb	0.049427908
201	0xbdf9b0df	-0.121919386
202	0xbe91c015	-0.2846686
203	0xbe84bd04	-0.25925457
204	0xbd53e2b1	-0.05172986
205	0xbd01aff4	-0.031661943
206	0x3e770078	0.24121273
207	0xbdf5a861	-0.11995006
208	0xbe47624d	-0.19471093
209	0x3e8a9a56	0.27070874
210	0x3e89a006	0.268799
211	0x3e6c06f2	0.23049524
212	0x3e046aaa	0.12931314
213	0x3dbcbe3d	0.092159726
214	0x3eaf0c2a	0.34188968
215	0xbd344ed4	-0.04402049
216	0xbd9ea9e3	-0.07747247
217	0xbe760281	-0.24024393
218	0x3e0200cc	0.12695616
219	0x3e4b6ea3	0.19866423
220	0xbe851de3	-0.25999364
221	0xbdaceff2	-0.084442034
222	0x3d2f065e	0.04273068
223	0x3d75392f	0.059868988
224	0x3dbcaa22	0.09212138
225	0x3e399fed	0.18127413
226	0x3dfd8e29	0.123806305
227	0x3e2ab5af	0.1667087
228	0x3db31284	0.08743766
229	0x3e890231	0.26759484
230	0x3d57bcaa	0.05267016
231	0x3e655da1	0.22398998
232	0xbe783ef1	-0.2424276
233	0x3db01ab3	0.085988425
234	0xbe5459c9	-0.20737375
235	0x3e42bfc0	0.1901846
236	0x3e122ef1	0.14275719
237	0xbe72b82e	-0.23703071
238	0xbe5c390f	-0.21506141
239	0xbbb853f8	-0.005625244
240	0xbe3195aa	-0.17342249
241	0x3da50687	0.080578856
242	0xbe745a05	-0.23862465
243	0xbc2a6f65	-0.010402535
244	0xbde208b0	-0.11036813
245	0xbe874ce8	-0.26425862
246	0x3d84ddde	0.0648763
247	0xbe80667a	-0.25078183
248	0xbe8c5565	-0.274089
249	0xbd7c5c74	-0.061611608
250	0xbead15f9	-0.33805826
251	0xbea6dfd1	-0.32592633
252	0x3e9608a5	0.2930347
253	0xbc93ddd2	-0.018050108
254	0x3d9a7d28	0.07543403
255	0x3def308b	0.11679181

gat1.bias f4 [256]
0	0xbc2ca47a	-0.010537261
1	0x3d2a1a72	0.041529126
2	0x3d265340	0.040606737
3	0xbbcf14a1	-0.006319598
4	0x3d01f6a6	0.031729363
5	0x3cbb372c	0.022853456
6	0x3d40632f	0.04696959
7	0x3d173172	0.03691239
8	0xbc9af303	-0.018914705
9	0x3ca74cf1	0.02042243
10	0x3cd2b0dc	0.025719099
11	0x3ca534e3	0.02016682
12	0x3ceffd0e	0.02929547
13	0x3d06f0ce	0.032944493
14	0xbc9c7ad1	-0.019101532
15	0x3d2b38e6	0.04180231
16	0xbca9bfb7	-0.0207213
17	0x3ccb9b62	0.024854366
18	0x3cc3cf9f	0.023902712
19	0x3cefe7c5	0.029285321
20	0x3d1058f7	0.035241093
21	0xbca26d37	-0.019827468
22	0x3b8b572b	0.0042523346
23	0xbbb3524f	-0.0054724584
24	0x3d1ee0ec	0.03878872
25	0x3d33a582	0.043859012
26	0xba40f55b	-0.00073607796
27	0xbaac8e49	-0.0013164963
28	0xbcdaca51	-0.0267078
29	0x3d468139	0.04846308
30	0xbce38389	-0.027772682
31	0x3cc2b907	0.023769869
32	0x3c96662d	0.018359268
33	0x3c82d290	0.015969545
34	0x3c98ac17	0.018636746
35	0x3d49f2e6	0.04930391
36	0x3cad6dbe	0.021170493
37	0x3ce2efac	0.027702175
38	0x3d0a4b48	0.0337632
39	0x3c67d457	0.014149747
40	0x3d091d89	0.033475433
41	0xbcc3edb9	-0.023917066
42	0x3ce3c335	0.027803043
43	0x3b916d6b	0.0044380925
44	0x3d05dec6	0.032683156
45	0xbc6cb2d0	-0.014446929
46	0x3be76602	0.007061721
47	0x3d15a9f7	0.036539044
48	0x3d078fbf	0.03309607
49	0x3d23d065	0.039993662
50	0x3c056cab	0.008143584
51	0x3c76d1f7	0.015064708
52	0x3bceee44	0.0063150246
53	0x3d33b49c	0.043873414
54	0x3ce1c5e4	0.027560182
55	0x3d38d912	0.04512889
56	0x3cf4744b	0.029840609
57	0xbcd86602	-0.026415829
58	0xbc77a24a	-0.015114376
59	0xbc92b456	-0.017908257
60	0xbc289086	-0.010288363
61	0x3d00f2b7	0.03148147
62	0xbc82620d	-0.015915895
63	0x3d02936d	0.031878877
64	0x3d6ec089	0.058289085
65	0x3d13c2f2	0.036074586
66	0x3d02fddf	0.03198039
67	0xbd156fc3	-0.036483537
68	0xbc74e71f	-0.014947682
69	0x3c5ded0a	0.013545284
70	0x3d097e9b	0.033568006
71	0xbcd345b4	-0.025790073
72	0x3d055dce	0.032560162
73	0x3c2c3ddf	0.010512798
74	0xbc8b752b	-0.017023643
75	0xbcfd450e	-0.030916717
76	0x3d1d8dc7	0.038465288
77	0x3cf264f1	0.029589148
78	0xbca44d54	-0.020056404
79	0xbc7ad44b	-0.015309404
80	0xbc90ad03	-0.017660623
81	0xbc7f8915	-0.015596648
82	0xbce3d708	-0.027812496
83	0xbc0a9f0e	-0.008460773
84	0x3d6ca01e	0.057769887
85	0x3ce35dc9	0.027754681
86	0x3cfd1e52	0.030898247
87	0x3cd8a779	0.026447045
88	0x3d097d6e	0.033566885
89	0xbcac6e79	-0.021048771
90	0x3cf8dabe	0.030377742
91	0xbc86bf3e	-0.016448613
92	0x3aaee9ea	0.0013344858
93	0x3d232e45	0.039839048
94	0xbc84c000	-0.016204834
95	0xbca334b0	-0.019922584
96	0xbb108375	-0.002205101
97	0xbc3390b7	-0.010959796
98	0xbc098a67	-0.008394814
99	0x3d00be59	0.03143153
100	0xbcc27349	-0.023736613
101	0xbc2818a2	-0.010259779
102	0x3d2b4b4a	0.041819848
103	0x3d01a78a	0.03165392
104	0x3d134115	0.03595074
105	0x3d136500	0.035984993
106	0x3caf1525	0.021372387
107	0x3c4e127c	0.012577649
108	0x3cd38f77	0.025825245
109	0x3d0197d2	0.031638928
110	0x3d7e573f	0.062094923
111	0xbc656f04	-0.014003519
112	0x3d090d8f	0.033460196
113	0x3cf2fa3f	0.029660342
114	0x3d589472	0.052875943
115	0x3c9efdfe	0.019408222
116	0x3d05f642	0.032705553
117	0xbb8c23be	-0.0042767217
118	0xb8d3f2b2	-0.000101064696
119	0x3c9de535	0.019274333
120	0xbc2d2710	-0.010568395
121	0x3ce457db	0.027873924
122	0x3c754ddf	0.014972179
123	0x3cfd84f6	0.03094719
124	0x3af1471a	0.0018408031
125	0x3ced3357	0.028955145
126	0x3cefd2be	0.029275294
127	0xbd051568	-0.032491118
128	0xbca5a89e	-0.020222005
129	0x3cec05d0	0.028811365
130	0x3c2469c3	0.010034981
131	0x3c3984da	0.011323178
132	0x3d3d88bc	0.04627298
133	0x3c8db02e	0.017295923
134	0xbcbe31d8	-0.023217127
135	0x3cdbf440	0.026849866
136	0x3bf376b4	0.007429922
137	0x3d54c172	0.051942296
138	0x3cd0e1cf	0.025498299
139	0xbce7bbef	-0.028287856
140	0x3d05cd5d	0.032666553
141	0x3d026bb2	0.031840988
142	0x3c3a80b7	0.011383227
143	0x3d0f856d	0.035039354
144	0xbc5572d4	-0.013027865
145	0x3ceb1c70	0.028700083
146	0x3d2e9829	0.04262558
147	0x3d8e3cd4	0.06945196
148	0xbca7397e	-0.020413157
149	0x3d103483	0.03520633
150	0xb8c8412c	-9.5488824e-05
151	0x3cbca692	0.023028646
152	0x3b47f259	0.003050944
153	0x3c5fa6ab	0.013650577
154	0xbbc9f700	-0.006163478
155	0xbb9fb9cc	-0.0048744436
156	0x3cddc556	0.027071636
157	0xbc7db393	-0.015484708
158	0x3d115bb5	0.03548785
159	0x3cf135ec	0.029444657
160	0x3d9f3eb4	0.077756315
161	0xbd027536	-0.031850062
162	0xbc8f16f0	-0.017466992
163	0x3833acbe	4.2837804e-05
164	0x3d251b34	0.040309146
165	0x3cae3625	0.021266052
166	0x3ce4149c	0.027841859
167	0x3d0a91fa	0.03383062
168	0xbcbf6514	-0.023363627
169	0xbc54275a	-0.012948835
170	0x3d0e502d	0.03474443
171	0xbc2d150c	-0.0105641
172	0xbb3945f9	-0.0028270467
173	0x3d65694e	0.05600863
174	0x3d014d05	0.031567592
175	0x3cd66ebf	0.026175855
176	0xbd1c629d	-0.038179982
177	0xbc2b4c82	-0.010455253
178	0x3b7b77d4	0.0038370984
179	0xbc055f09	-0.008140334
180	0xbd25d305	-0.040484447
181	0x3d8e9859	0.06962652
182	0xbc8c9382	-0.017160181
183	0x3ceee9e0	0.029164255
184	0xbc01f0fd	-0.007930991
185	0x3d21d398	0.039508432
186	0x3ceae8c9	0.028675454
187	0x3d1c904b	0.038223546
188	0x3d3e4e61	0.046461467
189	0x3d22ec79	0.0397763
190	0x3cfb088a	0.03064372
191	0x3d07bd30	0.033139408
192	0x3d4afc36	0.049556933
193	0x3cf0afb1	0.029380651
194	0x3aabba51	0.0013101791
195	0xbcf66cc2	-0.030081157
196	0xbd3c8081	-0.04602099
197	0x3d0c8cfa	0.034314133
198	0xbd0b7848	-0.034050256
199	0xbc7c486a	-0.015398124
200	0x3ca73164	0.020409293
201	0x3d6421a9	0.055696163
202	0xbc9bd1ab	-0.019020876
203	0x3d337bf4	0.043819383
204	0x3cd01398	0.025399968
205	0x3d273455	0.040821392
206	0x3d0a0413	0.03369529
207	0x3d06ade2	0.03288067
208	0x3d1717cc	0.03688793
209	0x39e5b9c3	0.00043816687
210	0x3caf687e	0.02141213
211	0xbcc2d3a0	-0.023782551
212	0x3884a5a4	6.3251035e-05
213	0x3cbf1d20	0.023329318
214	0xbb813d76	-0.0039440943
215	0x3d19e1d2	0.037568875
216	0x3cd34ffd	0.025794977
217	0x3d2199e3	0.0394534
218	0x3ce8b8dd	0.028408462
219	0x3c604eff	0.013690709
220	0xbd0962a2	-0.03354133
221	0x3cfe50cb	0.031044384
222	0x3c74c7d7	0.014940224
223	0x3d2ae343	0.04172064
224	0xbcbf2cbd	-0.023336763
225	0x3d2bdc29	0.041958008
226	0xbcf1f428	-0.029535368
227	0xbc784513	-0.015153187
228	0x3c13c79c	0.009019759
229	0x3d3dbb55	0.046321232
230	0x3a437751	0.0007456439
231	0x3cfdbbb8	0.0309733
232	0x3acf1a99	0.0015800773
233	0x3d26ff60	0.04077089
234	0xbb9b204e	-0.0047340756
235	0xbbe0f384	-0.006864967
236	0x3d3fa991	0.04679257
237	0xbc1aad66	-0.0094407555
238	0x3ba6d2ab	0.0050910315
239	0x3d0f97d3	0.0350569
240	0xbc6e8694	-0.014558453
241	0x3cfe83c5	0.031068692
242	0x3d0e0d53	0.034680676
243	0x3d4945df	0.0491389
244	0x3ceecae5	0.029149482
245	0x3d50e8a0	0.0510031
246	0xbce14bd8	-0.027501985
247	0x3c5855c0	0.013204038
248	0xbbccc29e	-0.006248786
249	0xbc11f173	-0.008907664
250	0xbca846ad	-0.020541513
251	0x3d32f41e	0.04368984
252	0xbcfd2038	-0.030899152
253	0x3d2be1a1	0.041963223
254	0x3d23a493	0.039951872
255	0x3cf3400c	0.029693626

gat1.lin.weight f4 [256, 60]
0	0xbde515d4	-0.11185804
1	0x3d70bcd1	0.05877382
2	0x3d8ddc00	0.06926727
3	0xbcf8f8d7	-0.030392094
4	0xbd1ce4b3	-0.038304042
5	0xbdf00b8e	-0.11720954
6	0xbd3a48b7	-0.045479503
7	0x3d85642f	0.06513249
8	0x3c87355b	0.016504934
9	0x3df92f07	0.12167173
10	0x3db9d90b	0.09074601
11	0xbd9992b8	-0.074986875
12	0xbdad3cef	-0.08458888
13	0x3cc55ef6	0.024093132
14	0xbcad9099	-0.021187114
15	0xbdc89e0f	-0.09795772
16	0xbd3684fc	-0.044560418
17	0xbd3bc063	-0.04583777
18	0xbd3b67a1	-0.045753125
19	0x3dec7247	0.11545234
20	0xbe4f6985	-0.20255096
21	0x3c96f3cc	0.018426798
22	0x3e252045	0.16125591
23	0x3d8c7709	0.06858642
24	0x3dee9845	0.11650137
25	0xbd8ac69b	-0.06776162
26	0x3e091912	0.1338847
27	0xbc9edca9	-0.019392328
28	0xbdd48cd7	-0.103784256
29	0x3d4b3022	0.04960645
30	0x3dddb9e8	0.108264744
31	0xbde835c6	-0.113383815
32	0x3e053ac6	0.13010702
33	0xbe1328cd	-0.14371033
34	0xbd991034	-0.074737936
35	0x3e09a5e1	0.13442184
36	0xbdbc4f6e	-0.091948375
37	0x3d0ce77d	0.034400452
38	0x3c6e2875	0.014536013
39	0x3e1827d3	0.14858942
40	0x3c719e27	0.014747179
41	0x3d09832e	0.03357237
42	0xbd88b31f	-0.0667479
43	0xbda86bb6	-0.08223669
44	0x3dfaf3d1	0.122535355
45	0x3d0cb2dc	0.03435026
46	0x3b82baed	0.0039895684
47	0xbe0418b7	-0.12900053
48	0xbd859bc0	-0.065238476
49	0xbd9c4083	-0.07629492
50	0xbd3236d7	-0.04350933
51	0x3dc2b164	0.09506491
52	0x3d8193ab	0.063269936
53	0xbdb8aa17	-0.09016817
54	0x3d5676c4	0.052359357
55	0xbd0e7512	-0.034779616
56	0xbcf8f663	-0.030390924
57	0xbe00321d	-0.12519117
58	0xbd8be4f4	-0.06830779
59	0xbdc95894	-0.09831348
60	0x3ddbd25a	0.10733481
61	0x3d9559d7	0.07292526
62	0x3d87f0d0	0.06637728
63	0xbc723eb5	-0.014785458
64	0xbdb28b16	-0.08717935
65	0xbd332e67	-0.043745425
66	0x3d61a88f	0.05509239
67	0x3dc9e82b	0.09858736
68	0xbd5b6c4e	-0.053570084
69	0x3da79b6f	0.081839435
70	0x3d25b9d9	0.04046044
71	0x3d266bae	0.040630035
72	0x3d95b44e	0.07309781
73	0xbc9b6055	-0.018966833
74	0x3c9884e0	0.018618047
75	0xbd5bac70	-0.053631246
76	0x3db33b52	0.08751549
77	0x3d82c270	0.06384742
78	0x3d799fbe	0.060943358
79	0xbcaae1b9	-0.020859586
80	0xbe04bfe7	-0.1296383
81	0x3bb5ef13	0.0055521815
82	0x3e45af6a	0.19305196
83	0x3ddee71a	0.10883923
84	0x3ddb1e80	0.10699177
85	0x3dffb58d	0.124858
86	0xbce44ac6	-0.027867686
87	0x3e0c0b95	0.13676293
88	0xbda497d9	-0.08036775
89	0xbda2a322	-0.07941271
90	0xbd018601	-0.031621937
91	0x3ba2a6a4	0.0049637128
92	0x3d721159	0.059098575
93	0x3d4b538c	0.049640223
94	0x3d6d4dce	0.05793553
95	0xbd1d796e	-0.038445882
96	0x3940df6d	0.0001839378
97	0xbd76b1b4	-0.060228065
98	0xbd873ad8	-0.066030204
99	0xbdfabc3a	-0.122429326
100	0xbd6ebc5a	-0.058285095
101	0x3cd2b715	0.025722066
102	0x3d07d6e2	0.033163913
103	0xbd5074d1	-0.050892655
104	0x3e06b9f9	0.1315688
105	0xbd8da53d	-0.06916282
106	0x3dda812d	0.106691696
107	0xbcd608fc	-0.026127331
108	0xbc77390e	-0.0150892865
109	0x3ba0bdd2	0.004905441
110	0xbdcd530a	-0.10025604
111	0x3df38342	0.1189027
112	0xbd9423be	-0.0723338
113	0xbd2b3a5d	-0.041803706
114	0x3e275fe6	0.16345176
115	0x3d9d8d1d	0.07692931
116	0x3e1360ed	0.14392443
117	0xbd952f8d	-0.0728446
118	0xbdcf1e06	-0.101131484
119	0x3e22b4e4	0.15889317
120	0x3e0c80f3	0.13721065
121	0x3d97e6d6	0.07417075
122	0xbddd422b	-0.10803636
123	0x3d6691a0	0.056291223
124	0xbc202c5b	-0.0097762
125	0x3e1b9c6e	0.15196392
126	0x3db0717f	0.08615398
127	0x3dcec47b	0.100960694
128	0xbca3794c	-0.0199553
129	0xbd901028	-0.070343316
130	0x3d192d42	0.037396677
131	0x3dbb1e7a	0.09136672
132	0x3dd421dc	0.10358021
133	0x3dd6d7e1	0.104903944
134	0x3dfcd988	0.12346178
135	0xbddefc2b	-0.10887941
136	0x3deeb6b1	0.11655939
137	0x3d99c19d	0.07507632
138	0x3c5eb10e	0.013592018
139	0x3d383b48	0.04497841
140	0xbde01404	-0.10941318
141	0xbdf7ab61	-0.12093235
142	0x3e262391	0.16224505
143	0x3d83b83f	0.064316265
144	0xbe025fa6	-0.127318
145	0x3e21e8b3	0.15811424
146	0x3d6d14a9	0.05788103
147	0x3ddad9ba	0.10686059
148	0x3dc20d37	0.09475177
149	0x3d59adf2	0.053144403
150	0xbdaff8e9	-0.08592398
151	0x3b78fbc6	0.0037991866
152	0x3c16a19b	0.009193803
153	0x3c76601b	0.015037562
154	0xbda9fe41	-0.08300448
155	0x3db5a4d6	0.088693306
156	0xbdddacad	-0.10823951
157	0xbdd83952	-0.10557808
158	0x3db56756	0.088576004
159	0xbd127862	-0.035759337
160	0xbd2d2a75	-0.04227682
161	0xbdc1ef15	-0.094694294
162	0xbd100311	-0.035159174
163	0x3c521d4c	0.012824368
164	0x3d5a3381	0.053271774
165	0x3cfd0f8d	0.030891204
166	0x3d6e6a9e	0.058207147
167	0xbc657eee	-0.014007313
168	0x3e1764fe	0.14784619
169	0xbd8f6325	-0.07001332
170	0x3d9a3edf	0.07531523
171	0xbdac6c5c	-0.084191054
172	0xbceb0f26	-0.028693747
173	0xbc8631f8	-0.016381249
174	0xbd4239ee	-0.047418527
175	0x3dbc378b	0.091902815
176	0x3dec3f6c	0.11535534
177	0xbde808d3	-0.11329808
178	0xbc8bcded	-0.017065967
179	0x3debe7c8	0.11518818
180	0x3d12b620	0.03581822
181	0xbd1d71e9	-0.03843871
182	0x3cb5a145	0.022171626
183	0xbb1d2b39	-0.0023982062
184	0x3d3f7090	0.046738207
185	0x3cedb173	0.029015278
186	0x3c82cf39	0.015967952
187	0x3d25d72d	0.04048841
188	0x3c96ba8c	0.0183995
189	0xbdf158a5	-0.11784486
190	0xbe16e54c	-0.14735907
191	0xbb3c0b94	-0.0028693425
192	0xbbf29327	-0.007402796
193	0x3db56f40	0.0885911
194	0x3d050c8f	0.03248268
195	0xbdf07707	-0.11741453
196	0xbc898729	-0.016788082
197	0xbd2e97da	-0.042625286
198	0xbd882e2d	-0.06649432
199	0xbc848a30	-0.016179174
200	0x3e5e1f19	0.2169155
201	0x3d457a6e	0.04821246
202	0xbe22e987	-0.15909396
203	0xbd2cfd77	-0.04223391
204	0x3d8055f6	0.06266396
205	0xbd42986d	-0.047508646
206	0x3d7db94a	0.061944284
207	0xbe120b7f	-0.14262198
208	0xbd9d7766	-0.07688789
209	0x3db97d4f	0.09057104
210	0x3e219f30	0.15783381
211	0xbdace88c	-0.08442792
212	0x3cb7093c	0.02234327
213	0x3df50a49	0.11964852
214	0x3d502917	0.050820436
215	0xbe20e9af	-0.15714143
216	0x3dc378d0	0.095445275
217	0xbd14d2b8	-0.03633377
218	0xbc98018c	-0.018555425
219	0x3dd3f88d	0.10350142
220	0xbc965647	-0.018351687
221	0xbcf4a000	-0.02986145
222	0xbd68119c	-0.05665742
223	0xbdc852f7	-0.09781449
224	0xbdae7675	-0.08518688
225	0x3db76182	0.08954145
226	0x3c6ec5f1	0.01457356
227	0x3cb7a1a1	0.022415938
228	0xbd836123	-0.06415012
229	0x3dd64429	0.10462219
230	0xbcffe368	-0.031236365
231	0xbdfa20cf	-0.12213289
232	0x3d139abc	0.036036238
233	0x3dad7e38	0.0847134
234	0xbd02027c	-0.03174065
235	0x3987d610	0.00025908696
236	0x3db686dc	0.08912441
237	0x3e074324	0.13209206
238	0xbda835f0	-0.08213413
239	0xbd4d954e	-0.050191216
240	0x3da03231	0.07822073
241	0xbd0d9373	-0.034564447
242	0x3d1df207	0.038560893
243	0xbd4744ba	-0.048649527
244	0xbdd9c040	-0.10632372
245	0x3db48234	0.08813897
246	0x3dc2c3d2	0.09510006
247	0xbd52ebf5	-0.051494557
248	0x3e12af09	0.14324583
249	0xbb8cf211	-0.0043013175
250	0x3dac5fd9	0.08416719
251	0x3c70cd80	0.0146974325
252	0xbde24706	-0.11048703
253	0x3d195358	0.037433
254	0x3e2e81c4	0.17041689
255	0xbdf19750	-0.11796439

gat2.att_src f4 [1, 1, 32]
0	0x3ed8fb1f	0.4237909
1	0xbf03e5f7	-0.51522774
2	0x3df32b70	0.118735194
3	0x3ef4eafb	0.47835526
4	0xbe8c6984	-0.27424252
5	0xbe0eeed6	-0.13958296
6	0x3ece5ba6	0.40304297
7	0xbf27b436	-0.65509355
8	0xbf3de79e	-0.74181545
9	0xbe10194e	-0.14072153
10	0x3ced3d94	0.028960027
11	0x3e2e5c64	0.17027432
12	0x3f011eb9	0.50437504
13	0xbf243356	-0.6414083
14	0xbe27b72e	-0.16378471
15	0x3eceb135	0.40369573
16	0x3e6a871d	0.22903104
17	0xbeb64ac3	-0.35603914
18	0xbe3d5101	-0.18487932
19	0xbecb986a	-0.3976472
20	0xbf246844	-0.64221597
21	0xbd82c700	-0.063856125
22	0x3e73260f	0.23744987
23	0xbe6fb18a	-0.2340757
24	0xbf3b82c6	-0.7324642
25	0xbf11a7e4	-0.56896806
26	0xbec90c2c	-0.392671
27	0x3e41a8a7	0.18911992
28	0x3f1f3f91	0.6220637
29	0xbf14f8e3	-0.5819227
30	0xbea243f6	-0.31692475
31	0xbdee15ad	-0.11625228

gat2.att_dst f4 [1, 1, 32]
0	0x3e0a48fa	0.13504401
1	0x3e921eb4	0.2853905
2	0xbdaa8b0b	-0.083273016
3	0x3ed9f466	0.42569274
4	0x3e30ff57	0.17284904
5	0x3e9d4fe2	0.30725008
6	0x3eecf712	0.4628225
7	0x3e6034a6	0.21895084
8	0x3d38278c	0.04495959
9	0xbdcb0f0a	-0.09914978
10	0x3e8114d0	0.2521119
11	0xbd5b8c73	-0.05360074
12	0xbe056395	-0.13026269
13	0xbe9b31bc	-0.30311382
14	0x3e185273	0.14875202
15	0x3d3d3e25	0.046201844
16	0xbda7228e	-0.08160888
17	0xbd1a1669	-0.03761903
18	0x3e410bd0	0.18852162
19	0x3e56bf47	0.20971404
20	0x3ed541af	0.41651675
21	0x3ecfb7ad	0.4056982
22	0x3e325528	0.17415297
23	0xbda4e469	-0.08051378
24	0x3de5f540	0.11228418
25	0xbc9a0b52	-0.018804226
26	0x3eb836bf	0.35979268
27	0x3d55388f	0.05205589
28	0x3eb51fcc	0.35375822
29	0xbd1ca7ec	-0.03824608
30	0x3ec5b9f2	0.38618428
31	0x3bb65992	0.005564877

gat2.bias f4 [32]
0	0x3cf9eaf1	0.030507537
1	0x3ce51b7b	0.027967205
2	0x3d025d9c	0.031827554
3	0x3d09e385	0.033664245
4	0x3d1c1824	0.03810896
5	0x3cec9596	0.028879922
6	0x3d0035c0	0.03130126
7	0xbc7e0211	-0.015503422
8	0xbd359d0c	-0.044339225
9	0x3d01d3eb	0.03169624
10	0x3d0b81ea	0.034059443
11	0x3cf06e3e	0.029349443
12	0xbc512205	-0.012764459
13	0x3c5b16dc	0.013372149
14	0xbc5cf8b7	-0.013487033
15	0x3d0928e6	0.03348627
16	0x3d07481f	0.033027764
17	0xbcb26cc5	-0.021780381
18	0x3cb0b47d	0.021570439
19	0xbc90be64	-0.01766891
20	0xbc637df6	-0.013885012
21	0x3ce1c64c	0.027560376
22	0x3d196d0b	0.037457507
23	0x3cbee6d1	0.023303421
24	0xbcde82a3	-0.027161902
25	0xbcd2c7ae	-0.02572998
26	0x3d0eae70	0.034834325
27	0xb822a4ba	-3.8777223e-05
28	0xbcd1b13a	-0.025597204
29	0xbcb05e0e	-0.021529224
30	0x3cef253b	0.029192558
31	0x3ca46ad7	0.020070476

gat2.lin.weight f4 [32, 256]
0	0xbce3b014	-0.027793922
1	0x3e18e27e	0.1493015
2	0x3decc974	0.11561862
3	0xbc597841	-0.0132733
4	0x3e20aac8	0.15690148
5	0xbd5a9b3e	-0.053370707
6	0x3de13d0c	0.10997972
7	0x3b047b36	0.002021504
8	0xbdf459f8	-0.11931223
9	0xbd3c5305	-0.04597761
10	0x3d3382a4	0.04382576
11	0xbe00a5d3	-0.12563257
12	0xbd65e040	-0.056122065
13	0xbda58d0d	-0.08083544
14	0xbda2afcd	-0.079436876
15	0xbcab6ecb	-0.020926854
16	0x3c74521b	0.014912154
17	0xbd66652b	-0.056248825
18	0x3d89df75	0.06732074
19	0x3e099c58	0.13438547
20	0x3dece0c2	0.11566307
21	0x3ce610f9	0.028084265
22	0xbdf877c4	-0.121322185
23	0xbbf8291c	-0.00757326
24	0x3e0d0bf7	0.13774095
25	0xbc504e2f	-0.012713953
26	0x3d2b6729	0.041846428
27	0xbcecf92b	-0.028927406
28	0x3d242fa9	0.040084515
29	0xbd87ecb2	-0.06636943
30	0xbdf7d732	-0.12101592
31	0x3daa4e1f	0.08315682
32	0x3dd1e331	0.102484114
33	0xbdc7b0be	-0.09750508
34	0x3e02aec5	0.12761982
35	0x3d702dfd	0.058637608
36	0xbca82d2b	-0.02052935
37	0x3ddd5081	0.108063705
38	0x3e1ca154	0.15295917
39	0x3d34b9f3	0.044122647
40	0x3d8a7f67	0.06762581
41	0xbdb27619	-0.087139316
42	0x3dcadf70	0.099058986
43	0x3b9e9150	0.0048391
44	0x3da06ab1	0.0783285
45	0xbe384457	-0.1799482
46	0xbe31461b	-0.173119
47	0x3d99aa1c	0.07503149
48	0xbbc187ea	-0.005906095
49	0x3e03c5fb	0.12868492
50	0xbd343102	-0.04399205
51	0xbdf407e9	-0.11915571
52	0xbddb8635	-0.10718957
53	0x3d531769	0.051535998
54	0xbcc35318	-0.023843333
55	0xbd3edb53	-0.046595883
56	0xbc5077fb	-0.012723918
57	0xbdf8611a	-0.12127896
58	0x3de14b42	0.110006824
59	0x3dd3fafc	0.10350606
60	0xbd9726fd	-0.07380483
61	0x3e0c9444	0.13728434
62	0xbdac2073	-0.08404627
63	0x3bc5758b	0.006025975
64	0x3d55429c	0.052065477
65	0x3dbca645	0.09211401
66	0xbd316278	-0.043306798
67	0xbdc5aa09	-0.09651572
68	0xbdd1d050	-0.102448106
69	0x3daba5f2	0.08381261
70	0x3bb87680	0.0056293607
71	0xbdddd4a0	-0.108315706
72	0x3dea4301	0.11438561
73	0x3def3eb5	0.11681882
74	0xbdf44a17	-0.11928194
75	0x3de5c6fd	0.11219595
76	0xbda5624c	-0.08075389
77	0x3e084c8d	0.13310452
78	0xbd966de9	-0.073451824
79	0xbdc1b733	-0.094587706
80	0xbcb61011	-0.022224458
81	0xbe0f7b10	-0.14011788
82	0xbd2ced21	-0.04221833
83	0xbc8c7662	-0.017146293
84	0x3ded1239	0.11575741
85	0xbd640866	-0.055672072
86	0xbc4f11d3	-0.012638527
87	0x3db37e3c	0.08764312
88	0x3e1e2c57	0.15446602
89	0xbe12e645	-0.14345653
90	0x3dfb6bf4	0.1227645
91	0xbe16ec29	-0.14738525
92	0xbde5f8d9	-0.112291045
93	0xbc685c13	-0.014182108
94	0x3d3a7319	0.045519922
95	0xbda8b21d	-0.082370974
96	0xbe022859	-0.12710704
97	0xbde5c0b5	-0.112183966
98	0xbe03c610	-0.12868524
99	0x3e23d79d	0.16000219
100	0xbdd86d4f	-0.10567724
101	0x3dd5e118	0.10443324
102	0x3d7cbd54	0.061703995
103	0x3da81135	0.08206407
104	0xbc4c8bb6	-0.012484482
105	0x3e0683af	0.13136171
106	0xbd6bc3e5	-0.057559866
107	0x3df18f4f	0.11794912
108	0x3d8b62ef	0.068059795
109	0x3e195525	0.14973886
110	0x3de4175c	0.11137268
111	0xbdcb3df0	-0.09923923
112	0x3ca70ce5	0.02039189
113	0xbdd6f1cf	-0.1049534
114	0x3dd6c324	0.10486439
115	0x3d1529fd	0.036416996
116	0x3df24b63	0.11830785
117	0xbd8a7b2c	-0.067617744
118	0x3d8f315a	0.06991835
119	0x3db6a000	0.08917236
120	0xbd81f713	-0.06345954
121	0x3e0c60b2	0.13708761
122	0x3dbf9991	0.09355462
123	0x3cc417a8	0.023937061
124	0xbda0db58	-0.078543365
125	0x3dc37435	0.09543649
126	0x3e228b16	0.1587337
127	0xbdd6193e	-0.10454033
128	0xbde5fd22	-0.11229922
129	0x3e0ea68e	0.13930723
130	0xbd66609b	-0.056244474
131	0x3c8fdf51	0.01756254
132	0x3c4cc344	0.012497727
133	0x3c5ddc1a	0.013541246
134	0xbe1d7a10	-0.15378594
135	0xbd3aad35	-0.04557534
136	0x3cc521d2	0.024063978
137	0xbd149207	-0.036272075
138	0x3cbbe88d	0.022938037
139	0xbdecec27	-0.1156848
140	0x3df7e1c7	0.121036105
141	0x3e13489f	0.14383171
142	0xbdddab4c	-0.10823688
143	0xbba91297	-0.005159687
144	0xbdef06e8	-0.11671239
145	0x3dd762e5	0.105169095
146	0xbd987e88	-0.07446009
147	0x3cac6a45	0.021046767
148	0x3dca3581	0.09873486
149	0x3e273417	0.16328464
150	0x3df30c3c	0.11867568
151	0x3ddf3330	0.10898435
152	0xbd45e606	-0.04831507
153	0x3d8e2439	0.06940503
154	0xbe3745b4	-0.17897683
155	0x3b4af419	0.0030968247
156	0x3d36b488	0.04460576
157	0xbc329d45	-0.010901754
158	0xbcf6d5e6	-0.030131292
159	0x3dba935d	0.091101386
160	0x3e1fc9e5	0.1560436
161	0xbda7257a	-0.08161445
162	0xbcc7b315	-0.024377385
163	0x3c76dbab	0.015067021
164	0xbcebba3f	-0.028775332
165	0x3c9f4b0a	0.019444961
166	0x3d8e41e5	0.06946162
167	0x3d12afa1	0.035812024
168	0x3c732903	0.014841321
169	0xbb6d6fbe	-0.0036229934
170	0xbc082cc4	-0.008311454
171	0x3cdea8b5	0.027180055
172	0xbd27cfef	-0.040969785
173	0x3e22a0b2	0.15881613
174	0x3e0f103c	0.13971037
175	0xbd8514e1	-0.06498123
176	0xbddc42d7	-0.10754936
177	0x3dd1947d	0.102334
178	0xbe31b9eb	-0.17356078
179	0xbd9d8209	-0.07690818
180	0x3d331204	0.043718353
181	0xbce9662c	-0.028491102
182	0xbe015b88	-0.12632573
183	0x3d3d18a4	0.046166077
184	0xbe033e62	-0.12816766
185	0x3e1e0fdf	0.15435742
186	0x3d74c0d5	0.05975421
187	0xbd312271	-0.043245737
188	0xbcb2fc7d	-0.021848911
189	0x3c82f92e	0.015987959
190	0x3dd6ddf6	0.104915544
191	0xbc984026	-0.018585276
192	0xbd8de965	-0.06929282
193	0x3dba0ae7	0.09084111
194	0xbe2fc2c2	-0.17164138
195	0x3c71dc2a	0.014761964
196	0x3d6fd3eb	0.05855171
197	0x3d23d96d	0.040002275
198	0x3d66c5e1	0.056341056
199	0x3cef7f7d	0.029235596
200	0xbd112919	-0.035439584
201	0xbdda6fd9	-0.106658645
202	0xbcf225e8	-0.02955909
203	0x3d86ebec	0.06587967
204	0x3e0ffa27	0.1406027
205	0x3e0c73ca	0.13716045
206	0x3dac1227	0.084019
207	0xbc7128f7	-0.014719239
208	0xbc9b7c13	-0.018980062
209	0xbd9d8ffb	-0.07693478
210	0xbdb68b02	-0.089132324
211	0xbdb16e42	-0.08663608
212	0xbdb079cc	-0.08616981
213	0xbdca6dd0	-0.09884226
214	0x3d7d73f7	0.06187817
215	0x3d5cf5ee	0.053945474
216	0xbdbc09c9	-0.09181554
217	0x3db886c8	0.090100825
218	0xbdfb9937	-0.12285083
219	0x3daf1e83	0.085507415
220	0xbe0b7149	-0.13617434
221	0xbb8f5090	-0.0043736175
222	0xbd41ef13	-0.04734714
223	0x3e14ddff	0.1453781
224	0x3d98837e	0.07446955
225	0x3cc714eb	0.024301967
226	0xbdad400f	-0.08459484
227	0x3d1d0ac6	0.038340352
228	0x3a8f390b	0.0010927034
229	0x3e159cc4	0.14610583
230	0xbcbd2865	-0.02309055
231	0xbd16ae54	-0.036787346
232	0xbdd4d13d	-0.103914715
233	0x3c814cd8	0.015783712
234	0x3d82c6c2	0.06385566
235	0xbe1b2f76	-0.15154824
236	0xbcfe855a	-0.031069446
237	0x3d90a1db	0.070621215
238	0x3bf17171	0.0073682596
239	0x3cdb2975	0.026753167
240	0x3da0ccfb	0.07851597
241	0xbd6e718f	-0.058213767
242	0xbdfc96e7	-0.1233347
243	0x3dd35e38	0.10320705
244	0x3df3c659	0.11903066
245	0x3d7d2482	0.061802395
246	0xbdc5694e	-0.09639226
247	0x3e04255d	0.12904878
248	0xbdee0a92	-0.1162311
249	0x3d309f01	0.043120388
250	0x3dafe36d	0.085883
251	0x3e0d6713	0.13808851
252	0xbdc78d47	-0.097437434
253	0x3e266678	0.16250026
254	0x3df48e25	0.119411744
255	0x3df0f483	0.11765387

fc.0.weight f4 [16, 32]
0	0x3e449a84	0.19199568
1	0x3df4a530	0.119455695
2	0xbdb76035	-0.08953897
3	0x3dd0b5b6	0.101909086
4	0x3e43daa1	0.19126369
5	0x3e2a6139	0.1663865
6	0x3d90d0af	0.07071053
7	0xbd258b39	-0.040415976
8	0x3c0fcfcf	0.008777573
9	0x3c7721de	0.015083758
10	0xbbbee288	-0.0058253445
11	0x3c3ba38b	0.011452566
12	0xbe1581c4	-0.14600283
13	0x3de1096e	0.10988127
14	0x3c57ce8e	0.013171805
15	0x3bc83097	0.006109308
16	0x3e077beb	0.13230865
17	0xbe2ce36a	-0.16883627
18	0x3cb515d0	0.022105128
19	0xbe1a0592	-0.15041187
20	0xbe0257e1	-0.12728836
21	0x3dd85bae	0.105643615
22	0x3dbbeee8	0.09176427
23	0x3e02cad5	0.12772687
24	0x3d8c4c81	0.068505295
25	0xbd988020	-0.07446313
26	0x3e33ca5c	0.17557663
27	0x3e4f6b7a	0.20255843
28	0xbdfe0c87	-0.12404733
29	0x393b2f10	0.00017851242
30	0xbc706ec4	-0.014674846
31	0xbde58207	-0.112064414
32	0x3da8cd49	0.0824228
33	0xbcd645c7	-0.02615632
34	0xbd9c9718	-0.07646006
35	0xbe3bebf7	-0.18351732
36	0x3d96bb5d	0.073599555
37	0xbcb0ca3e	-0.021580812
38	0xbd043086	-0.032272838
39	0x3dcbbb20	0.09947801
40	0x3dd42655	0.10358874
41	0xbd8b5e4f	-0.06805097
42	0x3da112a9	0.07864887
43	0x3e05a620	0.13051653
44	0x3d91e215	0.071232
45	0xbd805d0a	-0.06267746
46	0x3e13ddcd	0.14440079
47	0xb9847c54	-0.00025269634
48	0x3d8af1e0	0.06784415
49	0x3dbdc229	0.09265549
50	0x3db1a959	0.086748786
51	0x3e25cf68	0.161924
52	0x3dfc3797	0.123152904
53	0x3d88a47d	0.06671999
54	0xbc04b67f	-0.008100151
55	0xbce44973	-0.027867055
56	0x3cc4152e	0.02393588
57	0x3d301495	0.04298838
58	0xbe0ba1c4	-0.13635927
59	0xbdd7097e	-0.10499857
60	0x3c7e360b	0.015515815
61	0x3e37f21d	0.17963453
62	0xbdb5b033	-0.08871498
63	0xbcd3b169	-0.025841432
64	0x3d8b98ae	0.06816231
65	0x3d133a17	0.03594407
66	0x3c52b5ef	0.012860759
67	0xbdeb6fb3	-0.11495914
68	0x3dbb4fc3	0.09146073
69	0x3da08d08	0.078393996
70	0xbd14f728	-0.03636852
71	0x3d1b3749	0.03789452
72	0x3e3b86c7	0.18313132
73	0x3c8cc834	0.017185308
74	0x3df95f41	0.12176371
75	0x3de302ab	0.11084493
76	0xbd64258b	-0.055699866
77	0x3dce08cf	0.10060274
78	0x3d40ecd8	0.04710087
79	0xbcc7d282	-0.02439237
80	0x3d8e6144	0.06952146
81	0xbdf4e9bb	-0.11958643
82	0xbe0ad359	-0.13557185
83	0x3e46bbc7	0.19407569
84	0x3d65ef87	0.056136634
85	0xbd7f73d4	-0.06236632
86	0xbe3baf9d	-0.1832871
87	0xbd9c63a9	-0.07636196
88	0x3d90b2d2	0.07065357
89	0xbc5bf612	-0.013425367
90	0x3de0af45	0.1097093
91	0xbd72fd18	-0.0593234
92	0xbd3c5f05	-0.045989055
93	0x3e49d1af	0.19708894
94	0x3d90111d	0.07034514
95	0xbe3f6356	-0.18690237
96	0xbe3a9519	-0.18220939
97	0xbc0bef59	-0.008540952
98	0x3deef5dd	0.116679884
99	0x3e274c47	0.16337691
100	0xbdba5810	-0.09098828
101	0xbd80d7dc	-0.06291172
102	0xbdd2c9f8	-0.10292429
103	0xbda7ed03	-0.08199503
104	0xbd955b59	-0.07292814
105	0x3d41eb7e	0.047343723
106	0xbde5f557	-0.112284355
107	0x3da4a64a	0.080395296
108	0xbd946445	-0.072456874
109	0xbe0a35db	-0.13497107
110	0xbd795800	-0.06087494
111	0xbd80f98f	-0.062975995
112	0x3d844b6c	0.06459698
113	0x3d02cd51	0.031934086
114	0x3da98562	0.08277394
115	0xbdcdef95	-0.10055462
116	0x3ddeb0a0	0.10873532
117	0xbcea21ce	-0.028580572
118	0x3c648290	0.013947144
119	0xbdbb2c1f	-0.09139275
120	0x3df8d17e	0.121493325
121	0x3dbc5802	0.09196474
122	0x3c525300	0.012837172
123	0xbc92d83b	-0.017925372
124	0xbd1781ba	-0.03698895
125	0xbd39cf92	-0.04536397
126	0xbdc727cf	-0.0972439
127	0x3d963b04	0.07335475
128	0x3dba89cf	0.09108316
129	0x3db8ec7b	0.0902948
130	0xbda01817	-0.07817095
131	0xbe268008	-0.16259778
132	0xbd37af82	-0.04484511
133	0x3d9252ee	0.07144724
134	0xbe420d0e	-0.18950292
135	0x3d36f0c7	0.044663217
136	0xbde4af57	-0.11166256
137	0x3d836d80	0.0641737
138	0x3c334350	0.0109413415
139	0x3d5999be	0.053125136
140	0xbd8f8eea	-0.070096806
141	0xbd46077f	-0.048346993
142	0xbdd4ce72	-0.10390939
143	0xbe2e493f	-0.17020129
144	0xbe33ce75	-0.17559226
145	0x3e1ebc00	0.15501404
146	0xbcd42076	-0.025894385
147	0xbe07336f	-0.13203214
148	0x3dab38c7	0.08360439
149	0xbda9f26a	-0.0829819
150	0x3d06d853	0.032921147
151	0x3d594fbc	0.053054556
152	0xbe247243	-0.16059212
153	0x3d82974b	0.06376513
154	0x3e14906f	0.14508222
155	0x3c07c7c4	0.008287374
156	0x3cbc7ac1	0.023007752
157	0x3dac692a	0.08418496
158	0xbdfcc25f	-0.12341761
159	0x3e00dd97	0.1258453
160	0xbe3eb8ca	-0.18625179
161	0x3db3d2b2	0.08780421
162	0xbe033deb	-0.12816589
163	0x3d0a07db	0.033698898
164	0x3ce71e48	0.028212681
165	0xbd80f773	-0.06297197
166	0xbe139a7b	-0.14414398
167	0x3daa8ad8	0.083272636
168	0x3d9eca8b	0.07753476
169	0x3e23909e	0.15973136
170	0x3d1e4bae	0.038646393
171	0xbe1a7219	-0.15082587
172	0xbddf9762	-0.10917546
173	0x3e1aac40	0.1510477
174	0x3e107170	0.14105773
175	0x3c88bb2d	0.016690815
176	0xbe18667b	-0.14882843
177	0xbdbb3019	-0.09140033
178	0xbd8acc0c	-0.067772
179	0xbbae4a8e	-0.005318946
180	0x3d68a3e9	0.056796942
181	0x3dbda62e	0.09260212
182	0x3e1195b2	0.1421726
183	0xbd753597	-0.05986556
184	0x3e03da4c	0.12876242
185	0x3e708dd8	0.23491609
186	0x3e151c4b	0.14561574
187	0x3c2cda40	0.010550082
188	0x3e155a27	0.14585172
189	0x3e6892e7	0.22712289
190	0x3e122a7c	0.14274019
191	0x3da83382	0.08212949
192	0x3da26ce7	0.07930928
193	0x3c16240f	0.0091638705
194	0x3dea3316	0.11435525
195	0xbdf2ef64	-0.118620664
196	0x3e279d79	0.16368665
197	0xbb8dcd86	-0.004327479
198	0x3b7df477	0.0038750449
199	0x3d0ec4ac	0.03485553
200	0xba6cd582	-0.00090345007
201	0x3dc9be01	0.098506935
202	0xbdc3b39c	-0.09555742
203	0x3d79b945	0.060967702
204	0x3d864cd4	0.065576226
205	0xbe1660ca	-0.1468536
206	0x3e10b1b5	0.1413029
207	0xbd9f4e62	-0.07778622
208	0x3da87927	0.08226233
209	0xbe058fde	-0.13043162
210	0x3c845cb8	0.016157493
211	0xbe302346	-0.17200956
212	0xbd530e50	-0.05152732
213	0x3d842ae6	0.06453495
214	0xbdf40c38	-0.11916393
215	0xbd41bce6	-0.04729929
216	0x3d331c2a	0.04372803
217	0xbda6662a	-0.08124955
218	0x3e4fdc56	0.20298895
219	0x3db1441e	0.086555704
220	0xbe1939f2	-0.1496351
221	0xbdf23109	-0.11825759
222	0x3dda72a5	0.10666398
223	0x3da85d72	0.08220948
224	0x3cc605ad	0.024172628
225	0x3dbb9226	0.09158735
226	0x3d38836f	0.04504722
227	0x3e0fee86	0.14055833
228	0x3e06f814	0.13180572
229	0xbc364e3c	-0.011127051
230	0xb9f16528	-0.0004604247
231	0x3d723f07	0.05914214
232	0x3bd6302b	0.006536504
233	0xbd9eca82	-0.07753469
234	0xbe26d322	-0.16291478
235	0x3d0ac6b4	0.033880904
236	0xbdabcea7	-0.08389025
237	0xbb170cfc	-0.002304851
238	0x3d5d3899	0.054009054
239	0xbe2682b1	-0.16260792
240	0x3e14bb29	0.14524521
241	0xbbef6908	-0.007306222
242	0xbcac3876	-0.021023016
243	0x3dcdf175	0.1005582
244	0x3b9a497a	0.004708466
245	0xbe198d67	-0.14995347
246	0xbe03099b	-0.12796633
247	0xbda94af1	-0.08266247
248	0x3d8bc95b	0.06825515
249	0x3d518df7	0.05116078
250	0xbdbda7c9	-0.09260518
251	0x3d6d0cbf	0.057873484
252	0xbbe7500c	-0.007059103
253	0xbd42c16e	-0.04754775
254	0xbdd4cb7d	-0.10390375
255	0xbe37c19c	-0.1794495

fc.0.bias f4 [16]
0	0xbc9216a5	-0.017833063
1	0xbd99e592	-0.0751449
2	0xbe41e14f	-0.18933605
3	0xbd10fecf	-0.035399254
4	0xbd0bb9da	-0.03411279
5	0xbe42e715	-0.19033463
6	0x3dad44b4	0.0846037
7	0x3d27b7de	0.040946834
8	0x3d912667	0.07087403
9	0x3e2e75f8	0.17037189
10	0xb997bbd9	-0.00028940922
11	0xbdb1370e	-0.08653079
12	0xbcd5b956	-0.026089352
13	0xbe1bbea1	-0.15209438
14	0x3d8688da	0.06569071
15	0xbdacd283	-0.084385894

fc.2.weight f4 [1, 16]
0	0xbe63b8d0	-0.22238469
1	0x3e462522	0.19350103
2	0x3d002a1e	0.031290166
3	0x3dd5535b	0.104162894
4	0x3e1fe367	0.15614091
5	0x3e420cd6	0.18950209
6	0xbe2815b5	-0.1641453
7	0x3dccdd53	0.10003152
8	0x3e58d36d	0.21174403
9	0xbcfa9a9c	-0.030591302
10	0x3e4ce237	0.20008169
11	0xbe3f6146	-0.1868945
12	0xbe5e498c	-0.21707743
13	0x3c975648	0.01847376
14	0xbd05a23b	-0.03262542
15	0xbe24bc0b	-0.16087358
