Final_version/pokemon_team_optimizer.pth (torch, 104546 bytes, 11 tensors)

gat1.att_src f4 [1, 4, 64]
00000000: db76 f63d 5931 c3be 4497 653e c946 72be
00000010: 4e3a 343e 8f69 76bd 4c5a f2bd 8a83 803e
00000020: 0172 7f3d 5323 353c 1f10 dcbd 3742 d3bd
00000030: f409 df3d 0536 86be 257c b53d afc6 963e
00000040: 11ea d13e e4de e7bd df53 c13e 9b99 903e
00000050: 8f24 6a3e 9d27 11be 8302 c33e 17a8 d7bd
00000060: 82e2 b2bd f53c d8bd bb89 923e 6313 d93d
00000070: 0d42 bb3e 52d7 74bd a976 d7bd a741 b43d
00000080: 0df4 973d fd8a 063e 3559 bfbb a725 5fbe
00000090: 1933 583e 7647 2ebe 112a 13be 9be6 89be
000000a0: 8091 853c 6360 9fbd 1436 423e 37e8 43be
000000b0: 4abb be3e 99b4 063e a293 8d3e a4b5 a4be
000000c0: 1f9b 54bd 6015 3dbe 4087 663d 7fce 363e
000000d0: 175f 7fbe a771 3c3d 9a3d f5bd f8c4 28be
000000e0: 8f2e 1bbe eacc c4bd bd2d 74be 24e9 30bd
000000f0: 57a4 a43e 6a3a 9bbe 23b2 52be 72ec bd3d
00000100: fe5d cf3d 09d6 d7bd 5683 57be 6754 c43c
00000110: 05e4 543e e7de e03d 66f4 243e ed12 ad3e
00000120: b17e 6c3e 8505 c1be f27f 6fbe b436 d8be
00000130: f63a 9cbe ce77 923e 9828 6e3e 2366 5fbe
00000140: dff1 3e3e b249 2abe 78ea dbbe 2d6f 253e
00000150: 5139 febb 3b72 c53e c7e0 f93d bc3a 703e
00000160: 68c2 653e cb99 543e 362e 5c3e 9df1 aabe
00000170: 0df6 923d 551f 203e 8cde a2be 1fa8 abbe
00000180: 5283 43be 3820 733e dcfd 933e c2db 973d
00000190: 49d9 883e 5890 a3bd 2a5a 223e e313 2e3e
000001a0: ef2d b13e bfa0 d03d 4df3 c1be 8f21 c3be
000001b0: e97d ebbb 4773 833b dfba c3bc 7301 40bd
000001c0: b394 693e 31cd f23d bf11 21be f3cf c8be
000001d0: 9bcc 7d3e 656c d53d 05e7 a23e f964 56be
000001e0: e735 7fbd 6c92 fcbd a3c0 053e 70a9 b03e
000001f0: 5115 993e b0f2 b13e 3f5b 183c d7d5 dabd
00000200: e73e 4dbe 4ee8 0bbe 4a1d 893e 0c9b 33be
00000210: ec4d 6b3e 7fc8 74be 7399 09be cf24 813d
00000220: 67ad b4bd 08e6 e4bd 9f16 6abc d230 e9be
00000230: 21b7 383e b651 9fbe 89ee 83be f0dc 35be
00000240: b490 443e 194b 77be 9c1f e3be e797 b23e
00000250: 7510 993e 0eab 3d3e ab7f 7c3e 5c2c cabe
00000260: 63b4 b3be a751 1b3e 5ec2 1c3e 30ba aebe
00000270: cda3 5c3e 2395 933d 4d1b 9a3c 32ad 6a3e
00000280: f914 14be c53a bdbd 4f32 5abe 1128 803d
00000290: 843a 0abe 1495 79be ddb6 1d3d 2d00 d0be
000002a0: 87c7 c4bc f3c4 02be 619a e83d e8d8 663e
000002b0: c303 97be 41d9 96bd a629 41be f499 5bbe
000002c0: 3cba 873e f54d 86be e748 03be cac4 993e
000002d0: 8a24 86be f0f7 973e 42eb abbe c182 063e
000002e0: e353 84bd 456c 963e cf5f 5b3e 5655 32be
000002f0: 1aad 073e ff8b 5c3d 8427 42be 2657 623e
00000300: 502f 1ebe a5ab 553e 7e17 0fbd b6f9 113f
00000310: 10e3 a23e 018c bf3d 1053 e6be ad57 913e
00000320: 8698 bc3e d955 043e 838e 68be 2e42 3ebe
00000330: e64c 073d 77d3 813e a6d2 4bbe 923d 253d
00000340: ed28 5fbd 73b7 acbd 2507 a0bd 016a 783e
00000350: 6251 afbe 4f1c bebe 9ef7 e5be b2d3 61be
00000360: b52b 993d f954 f1be dea7 aabe 1606 98bd
00000370: 7c1b 58be d8f9 cb3e aad0 aa3d 83f0 f3bd
00000380: 7931 abbd 6c4d de3d 0420 a33e 1a46 6ebe
00000390: 3d6b fbbd b4f6 02be 3c59 6f3e b1a7 a13d
000003a0: 191d 47be d842 343e e37d 8eb8 25e3 653e
000003b0: 40ea 25be 7a4e 983e bd3f be3e b0ad b33e
000003c0: 36dc 41be a38e 1d3e 0b02 d2be 953c 8dbe
000003d0: f7f3 f2bd 8598 8ebe 40a9 403e c382 92be
000003e0: cc8a 8abe a954 d4be 28e4 913e dabc 00be
000003f0: d0c7 6abe edce 763e 4b97 d93e 5338 183e
0.12034389 -0.38123587 0.22420985 -0.23659815 0.17600366 -0.060159262 -0.11833629 0.25100356
0.062364582 0.011055785 -0.10745262 -0.10315364 0.1089057 -0.2621309 0.08861569 0.2944846
0.4099889 -0.1132181 0.377593 0.28242192 0.22865508 -0.14175268 0.38087854 -0.105301075
-0.08734609 -0.10558502 0.28620705 0.10599401 0.3657383 -0.059775658 -0.105206795 0.08801585
0.07419596 0.13138957 -0.0058394917 -0.21791707 0.21113242 -0.17019448 -0.14371516 -0.2693375
0.016304731 -0.07782056 0.18965942 -0.19131552 0.37252265 0.1315483 0.27651697 -0.3216983
-0.051905748 -0.18465185 0.05628133 0.1785221 -0.24938618 0.046006825 -0.1197464 -0.16481388
-0.1515448 -0.09609397 -0.23845573 -0.04319109 0.3215663 -0.30318004 -0.20575766 0.09273614
0.101253495 -0.10538871 -0.21046194 0.023966027 0.20790108 0.10980015 0.16108856 0.33803502
0.23095204 -0.37699524 -0.23388651 -0.42229235 -0.30513734 0.2860703 0.23257673 -0.21816306
0.18646954 -0.16629675 -0.42952323 0.16155691 -0.0077582975 0.38563713 0.12201076 0.23459905
0.22437441 0.20761792 0.21502003 -0.3338746 0.07175837 0.15636952 -0.31810415 -0.33526704
-0.19093063 0.23742759 0.28904617 0.07414962 0.26728275 -0.07986516 0.15854707 0.16999774
0.34605357 0.1018691 -0.37880936 -0.3811154 -0.0071866405 0.004011545 -0.023892818 -0.046876382
0.2281063 0.118555434 -0.15729426 -0.39221153 0.24785082 0.10421065 0.3181688 -0.20936956
-0.062307265 -0.12332615 0.13061766 0.3450427 0.29899076 0.34755468 0.0092990985 -0.10685318
-0.20043527 -0.13662836 0.26780158 -0.17539614 0.22978944 -0.23904608 -0.13437442 0.06305849
-0.08822136 -0.111766875 -0.01428762 -0.4554506 0.18038608 -0.31117028 -0.25767925 -0.17760062
0.19195825 -0.24149741 -0.44360054 0.34881517 0.29895368 0.18522283 0.24658076 -0.3948697
-0.35098562 0.15167867 0.1530852 -0.34126425 0.2154686 0.0720618 0.018811846 0.22917631
-0.14461125 -0.09239725 -0.21308254 0.06257642 -0.13498884 -0.24373275 0.03850447 -0.40625134
-0.024020923 -0.12770443 0.113575704 0.2254368 -0.29495057 -0.07365657 -0.18863544 -0.21445447
0.26509273 -0.26231351 -0.12820779 0.3003295 -0.26199752 0.2968135 -0.33577925 0.13135816
-0.064613126 0.29379478 0.21423267 -0.17415366 0.13249627 0.05384445 -0.18960387 0.22103557
-0.15447736 0.20866258 -0.034934513 0.57021654 0.3181386 0.093528755 -0.44985247 0.28387204
0.36835116 0.12923373 -0.22710614 -0.18579933 0.03303232 0.25356647 -0.19904575 0.04034192
-0.05448239 -0.08433428 -0.07813863 0.24259187 -0.34241778 -0.37130973 -0.4491548 -0.22053412
0.074790396 -0.47135141 -0.33331198 -0.07423036 -0.21104234 0.39839053 0.08340581 -0.11911108
-0.083590455 0.10854611 0.31860363 -0.23268929 -0.122763135 -0.12789422 0.23373884 0.07893313
-0.19444694 0.17603624 -6.794536e-05 0.2244993 -0.1620264 0.29747373 0.37158003 0.3509345
-0.1893166 0.15386443 -0.41017184 -0.27585283 -0.11862939 -0.27850738 0.18814564 -0.28615388
-0.2705902 -0.4147084 0.28494382 -0.12572041 -0.22927785 0.24102373 0.4249824 0.14865236

gat1.att_dst f4 [1, 4, 64]
00000000: 25c2 763d 3913 a1be 3a13 003e 121a 17be
00000010: 5c8f 1a3d fdf7 86bd 8f6a b83e 94a3 543e
00000020: 31ee dc3d f2d0 be3c 3d19 d4bb dc74 563e
00000030: d459 b03e e0e7 86bd 36c3 12bd 408e 07ba
00000040: 93a7 56be 4da8 be3e 5750 783e c4e1 9b3e
00000050: 385b b73e 94c5 93bd c141 7dbb abe1 15be
00000060: bd3e 74be b957 58bd 6082 983d 4d6e 623e
00000070: d0f1 38be 8d06 903e b3dd a6be 67c8 023c
00000080: 533e 36be 3029 42be 9e69 c9bd ceb1 823e
00000090: 6c64 9e3e d0b1 7abe 47df 73bd f21f 59be
000000a0: 3a66 103e 1557 d83d 31f9 a23e eaef cd3d
000000b0: 28fa c1bd 746f 85bd 9f22 0ebe c18b a3ba
000000c0: 0055 ba3d 4c4a d83d 0363 243e 44f4 5a3e
000000d0: 8a38 483d 70aa 9c3e 4683 953e 8fed c93e
000000e0: 6b59 5d3e 81bd c83d c8d1 54be 2092 b8bc
000000f0: 255f debd 5e68 f4bd 8aec 933e 566d 9cbe
00000100: a86f 9cbc cc6d d7bc 3f90 e33d b17e 28be
00000110: 9854 ee3d eca3 e8bc c984 8c3c 4d0a ed3c
00000120: 1a06 d2bd 8fb2 033d 8f89 09be 9506 bbbc
00000130: 30e9 2c3e 5b90 213d d706 1dbe c35a efbd
00000140: ea69 ad3e ed3d 97bd 927f 363d db69 cd3d
00000150: a6c9 c3bd 0a2b 0d3e aaa6 583e 7d9e 8dbe
00000160: 51d8 e1bd 6496 453d c2ac 413e 77b4 323e
00000170: b09e 51bd 80ca 44be ca86 0d3e 6d09 533d
00000180: 2e0d 223e 0efa 43be 7e4a 11bc 4a0d 8bbe
00000190: a6b1 febd 6311 6c3e 66d2 233c c7f1 83bd
000001a0: fc27 e03d 3536 cd3d af73 87be 3255 013d
000001b0: 7e32 2cbe f3e7 383e 3c68 353e 113b 633e
000001c0: 4e79 b0bd fb25 cdbd 4323 5c3d 7167 d0bd
000001d0: 6790 ef3c a4d0 8c3d be60 f9bd 0d0e d4bc
000001e0: 426c 833e 88ef c1bd ef6f 8c3d 0fe9 15be
000001f0: 8fd8 6fbd 491d 483e d049 1e3e 11e7 bbbd
00000200: 3990 963e bfd5 b33e 4af0 6d3d fa5e 593e
00000210: 468e 573e c3a1 cb3e 04cc 3dbe f05d 3e3e
00000220: fa79 823e 298f bb3d 27af 4c3e f12a e5be
00000230: 9ce3 533c edda a83d 89d6 123e 32dd ae3c
00000240: fa56 513e a5ae a5be fdc5 513e de91 143e
00000250: 8152 2b3e f856 82bd fa7e 7b3e f367 19bc
00000260: a8ba 9ebe 744f eebd bee3 983c 7cbb cb3d
00000270: 04fe b43e 84bb 993e 55f2 253e b931 4b3e
00000280: 46b6 9c3e 3970 bf3c f382 663d a966 e43d
00000290: a8f5 933e 8ec0 a83e 192f 463e 6325 86bd
000002a0: 5657 cbbe 2185 01bd 050c f9bd bdbf 0b3e
000002b0: f738 e63d 4f5f b63e 7466 113e 22c6 c93e
000002c0: 03c0 92bd 27d8 2ebe 5009 a9be e60e 9fbe
000002d0: 1357 193e 2486 dfbe 566b a03e 04e2 b33d
000002e0: 5e7d e33d b26f 82bd 394d 5cbb 8213 213b
000002f0: 0256 9cbd dfa2 ac3e 2b74 87bd 6cc9 ca3e
00000300: 7caa 373e 8d6c 1fbe 81bd c73e 23a7 4fbe
00000310: a9d6 5abe ad77 8dbd 1880 4a3e 4cc3 983e
00000320: 7433 e03e 37f7 95bd 1a47 af3e e930 44be
00000330: 7e30 d63d dca7 6c3c ec02 a13e b877 bf3d
00000340: dbb1 343e 4f7d 673e 01cb 5bbe 034e 1fbe
00000350: 6065 133e 79a8 8dbc 7699 aabe 8cc5 d13e
00000360: f509 c5bd f33b 683d 0088 08be c918 373e
00000370: b627 88be 9a75 cd3e 01c7 573e 772c 08bd
00000380: 69f7 d53e d19b 3bbe 2616 a03e 05d0 b9bd
00000390: 581e 7d3d bb86 aabe 0714 1c3e b992 e33d
000003a0: 9651 b83c d203 003e c3a2 9ebd 14b9 e43d
000003b0: 19a3 86bd 2d9f 453d 40b8 63be d504 d23d
000003c0: 968f 893d f314 9cbc 29b8 073e d6de 6e3e
000003d0: 30e5 163e 7b83 f43d c99f a8be 6849 f6bd
000003e0: eeea b2be f18e 47bd 469d fd3c 8893 ba3d
000003f0: e437 80be 1b53 6b3e d568 5ebe 09fc c53e
0.060243744 -0.31459978 0.12507334 -0.14756039 0.037734374 -0.06590269 0.36018798 0.20765525
0.10787619 0.023292992 -0.006472735 0.20943016 0.34443533 -0.065871954 -0.0358307 -0.0005171038
-0.20962362 0.37237778 0.24249397 0.30445683 0.35811782 -0.072154194 -0.0038643929 -0.14636867
-0.23852058 -0.052818034 0.07446742 0.22112389 -0.18060994 0.28129998 -0.32591018 0.00798235
-0.17797212 -0.18961024 -0.09834598 0.2552628 0.3093599 -0.24481893 -0.059539106 -0.21203592
0.14101496 0.105634846 0.31830743 0.100555256 -0.09471542 -0.065153986 -0.13880394 -0.0012477563
0.09098244 0.10561046 0.16053395 0.21382242 0.048882045 0.30598783 0.29201716 0.39439055
0.21616141 0.0980177 -0.2078315 -0.022530615 -0.10857991 -0.11933969 0.28891402 -0.30552167
-0.01909621 -0.026297472 0.11111497 -0.16454579 0.11637229 -0.028398477 0.01715316 0.028935576
-0.1025507 0.03215271 -0.1343138 -0.022830287 0.16885829 0.03944431 -0.1533464 -0.11687233
0.3386987 -0.07384858 0.044555254 0.10029956 -0.09559946 0.1378595 0.21157327 -0.2765998
-0.11027587 0.048239127 0.18913558 0.17451654 -0.051176727 -0.19217873 0.13820949 0.05152266
0.1582534 -0.19138357 -0.008867858 -0.27158576 -0.124362275 0.23053508 0.009998893 -0.064426
0.109451264 0.10020105 -0.26455447 0.03157539 -0.16816136 0.18057232 0.17715544 0.22190501
-0.08616887 -0.1001701 0.053744566 -0.1017598 0.029243661 0.068757325 -0.12176655 -0.025885606
0.25668532 -0.09469515 0.06857287 -0.14639686 -0.058556136 0.19542421 0.15457845 -0.09174932
0.29406908 0.35124013 0.058090486 0.21227637 0.21050367 0.39771852 -0.18534857 0.18590522
0.25483686 0.09158165 0.1998869 -0.44759324 0.012932684 0.08244882 0.14339651 0.021345709
0.20443335 -0.32359806 0.20485683 0.14508769 0.16730691 -0.06364244 0.24560156 -0.009363162
-0.31001782 -0.11636248 0.018663283 0.09947869 0.3535005 0.30025876 0.16205724 0.19843186
0.30607814 0.023368942 0.056277227 0.11152393 0.28898358 0.32959408 0.19353904 -0.065501
-0.3971507 -0.031621102 -0.12160496 0.13647361 0.11241334 0.3561959 0.14199239 0.39408976
-0.071655296 -0.17074643 -0.33014917 -0.31066054 0.14974622 -0.4365703 0.3133189 0.087833434
0.11107896 -0.063689604 -0.0033615364 0.0024578278 -0.07633592 0.3371801 -0.06613954 0.39606798
0.17936128 -0.15568753 0.39011768 -0.20278601 -0.21370949 -0.06907592 0.19775426 0.298365
0.43789256 -0.07322543 0.34233934 -0.19159283 0.10458468 0.014444318 0.31447542 0.093490064
0.17645971 0.22606395 -0.21464159 -0.15557103 0.1439414 -0.017292248 -0.33320206 0.4097103
-0.0962104 0.056697797 -0.1333313 0.17880549 -0.26592797 0.40128785 0.21072008 -0.03324553
0.4179032 -0.18321158 0.31266898 -0.0907288 0.061796516 -0.33305916 0.15242015 0.111119695
0.02249984 0.12501457 -0.07745888 0.11168113 -0.06574077 0.048247505 -0.22238255 0.10254828
0.0671684 -0.019052958 0.13253845 0.23327193 0.14735866 0.119391404 -0.32934406 -0.1202572
-0.34944862 -0.048720304 0.030958783 0.091101706 -0.2504264 0.22980921 -0.21719678 0.3866885

gat1.bias f4 [256]
00000000: 8cb5 3c3d 417c 0bbd b6dd a3bc 8375 aebb
00000010: 3b9f 543d e174 473d 03c5 663d 9694 02bd
00000020: 2ba5 ae3b 2f72 253d cd4a 953c 4002 f3bc
00000030: 400e 0abd 0e76 5e3d e320 a7bc 1b10 6c3d
00000040: 355d f3bc 8b6d e93c 7927 813d 0e77 903b
00000050: 5544 1d3d 2eb2 543d 476c 4a3d 2a24 e83c
00000060: 07a0 9fbc ee03 443d c6aa 08bd ba70 543d
00000070: 223e 253d daa7 183d 924d 543d 80ad 793d
00000080: c600 923d f140 07bd 7a67 cbbc 9071 2b3c
00000090: 1b41 c6bc eea6 33bd e447 3c3d 31b4 d8bc
000000a0: 1faf 4e3d ddaf 7a3d e67f 553d 7033 223c
000000b0: dec6 313c 8166 493d 0be9 2fbc cf3b 733b
000000c0: c8b4 f6b9 ac66 14bd e1c7 293d dbed 1f3d
000000d0: a825 81bc 23ae 78bc 0cfb 64bc ab10 263d
000000e0: 682a 513d 5137 103d c2e4 3dbc cd2d 99bc
000000f0: e7ed 243d 2d71 143d cf1c 3f3d c04e 0cbd
00000100: 0ab6 1b3d 2133 e4bc f80a 713d 75d1 033d
00000110: 08a4 013d 3fdf a13c 49a4 7ebc 5ce9 313d
00000120: 1b69 343d bc4b d13d 02bd 363d f3e9 c7bc
00000130: f4e0 3e3d a9cb 21bd d248 f7bb 8723 4b3d
00000140: 2474 503d 30c3 553d 4aa2 44bc 669d 463d
00000150: 658f 2cbc 8dcb babc 3405 6b3d 470f b3bc
00000160: 5935 8a3d 2a95 8fbc 8ced 813d d401 f7ba
00000170: 94f7 1e3d e68c 253b da10 c33c 0fd3 30ba
00000180: 6313 be3b 9295 da3c a430 aebc 1803 663c
00000190: 7be6 2b3d 66dc 613d 518d 71bb cc69 97bc
000001a0: 98f0 5e3d 4484 853d 3c85 f4bc a4ed 82bc
000001b0: f681 383d 96c9 3abd 7808 0f3d 3e12 233d
000001c0: 45bf 3c3d 406f 373d 60e7 1c3d 5644 ddbc
000001d0: dfc2 783d baea 67bc b177 4d3d 10ab 09bd
000001e0: a6b5 093d 18c3 2a3d a71f f53c adb3 27bd
000001f0: c80c 213d 0443 2d3d ae41 4a3d f8c5 543d
00000200: 37d0 7c3c 5c59 b8bc d170 b4b9 b81e c03c
00000210: 722b a23c f6db 663d e39f 5dbd 5637 3d3d
00000220: 0e05 483d f1db 263d 29ec 1abd 9fd4 11be
00000230: b2f4 3a3d b566 6bbc 5a06 6a3d 075b 353d
00000240: 5883 733d 3ed7 21bd f4ac 31bd 7def eebc
00000250: c919 433d 26d3 a1bb 2173 4b3d 463a cb3c
00000260: 1674 b9bd 2626 3c3d 4fef 323d ce53 84be
00000270: 8e2a 383d ce22 873d 81a5 2fbd 9b2d 563d
00000280: e78b 1f3d e76b 5f3d dedd 2b3d 27ee bebc
00000290: e548 d53c 2cde 323d 6c4a 283d 3cc7 0e3d
000002a0: 8217 a1bc c4e3 4a3d 011b 8bbc 29d3 4c3d
000002b0: 424b d3bd 98f7 103d d0dd 643d 8ec7 813d
000002c0: 4f7b adbc 5f3d fb3c ee7c 113c e582 dabc
000002d0: e82a e83b 2bcf 25bd 5215 333d 7876 103d
000002e0: 65d8 573d 61d2 2dbd 0e9c aabc d593 373d
000002f0: 8ff6 803d 0529 7c3d 1c19 1ebc 86b8 503d
00000300: c733 523d cda0 15bd d251 4a3d 3b7a a33c
00000310: 30ba c5bc 15e7 953d 62d2 1cbe 16d9 343d
00000320: ec5c 593a a776 293d a15f 593d 0377 bdbc
00000330: 42e6 523d 9d0c 273d 0b41 0ebd 6103 00bd
00000340: 078d a1bc 60fa 303d be56 393d 4ac0 6abc
00000350: dc30 8e3d a99e d03c a8b0 7cbd 8d26 3d3d
00000360: bc21 4a3d 1278 27bd 8208 6c3c 64d3 343d
00000370: 4a33 253d fb17 6b3d 86ac 783c a11b 443d
00000380: 3d15 523d 3c1c 7fbc f766 483d 93d4 303d
00000390: 5d33 313d 7ca2 c43d 9cf4 1dba 7341 e0bc
000003a0: 3b31 0d3d 6e2c dbbc 35a9 1b3b 244a e2bc
000003b0: 536b 01bd 1965 873d b0bd 583b 99a4 a7bc
000003c0: fb01 3f3d 3cda 02bc b352 1abd 83a6 683d
000003d0: 102e 4d3d 5f05 a73d a1e9 3b3c e2e1 10bd
000003e0: 3dad 21bd d194 c33d 1eed 393d ba0b 5e3d
000003f0: a39f 95bd 553a 713d 1b85 18bc 7924 3c3d
0.046071574 -0.034054045 -0.020003181 -0.005324067 0.051909667 0.04869545 0.05634023 -0.031879984
0.005329748 0.040392097 0.018224144 -0.029664159 -0.033704996 0.054311804 -0.020401424 0.057632547
-0.02970753 0.028494617 0.06306357 0.0044087237 0.038395245 0.051927738 0.049419668 0.028337557
-0.019485487 0.04785531 -0.033365987 0.051865317 0.040342458 0.03726945 0.05183179 0.060956478
0.07129054 -0.033020917 -0.024829615 0.010464087 -0.024200967 -0.04386037 0.045966998 -0.02645311
0.050459977 0.061202873 0.052123927 0.009899959 0.010850636 0.04917002 -0.010736714 0.0037114506
-0.0004705547 -0.036230728 0.041450385 0.039045196 -0.015765026 -0.015178236 -0.01397587 0.04054324
0.051065832 0.035209004 -0.011590185 -0.018698597 0.040265944 0.036240745 0.046658333 -0.03425479
0.038015403 -0.027856411 0.05884835 0.032182176 0.031650573 0.019759772 -0.015542098 0.04343544
0.04404555 0.10219523 0.044613846 -0.024403548 0.04660125 -0.039500866 -0.0075465227 0.04959443
0.05089201 0.0521881 -0.012001583 0.04848995 -0.010532235 -0.022802139 0.05737801 -0.02185787
0.067484565 -0.017527182 0.063441366 -0.0018845149 0.038810328 0.0025260984 0.023811746 -0.00067453174
0.005800651 0.026682649 -0.021263428 0.014038824 0.04196785 0.05514183 -0.0036857913 -0.018483065
0.054428667 0.06519368 -0.029848687 -0.015982457 0.045045815 -0.045602404 0.034920186 0.03981232
0.046080846 0.04478383 0.038306594 -0.027010124 0.06073272 -0.014155084 0.050162975 -0.033610404
0.0336205 0.041689962 0.02992232 -0.040942837 0.03931883 0.04230024 0.049379043 0.05194661
0.015430502 -0.022503547 -0.0003441633 0.023452148 0.019796107 0.056362115 -0.054107558 0.04619535
0.048832946 0.040737096 -0.037822876 -0.14241265 0.045643516 -0.014367749 0.057134964 0.044276264
0.05945143 -0.03951191 -0.04337783 -0.029166931 0.047632013 -0.004938501 0.049670342 0.02480806
-0.09055345 0.04593482 0.043685254 -0.25845188 0.04496246 0.06598435 -0.042882446 0.052289587
0.03895178 0.054546263 0.041959636 -0.02330692 0.026035735 0.04366891 0.0410866 0.034857973
-0.01966453 0.04953362 -0.01698065 0.050006066 -0.10317089 0.035392374 0.0558756 0.0633689
-0.021176962 0.030668912 0.008879883 -0.026673744 0.007085193 -0.040480774 0.043721505 0.03526923
0.052696604 -0.04243696 -0.020826366 0.044818718 0.06297027 0.061562557 -0.009649541 0.050957225
0.05131891 -0.036530305 0.049394436 0.019955745 -0.024136633 0.07319466 -0.1531463 0.04415234
0.00082917395 0.04137292 0.053069714 -0.023128038 0.051489122 0.040783513 -0.03473 -0.031253222
-0.019720567 0.043207526 0.04524874 -0.014328072 0.06942913 0.02546628 -0.06169191 0.046179343
0.049348578 -0.040885992 0.014406325 0.04414691 0.040332116 0.057395916 0.015177852 0.04787791
0.051289786 -0.015570696 0.04892632 0.043171477 0.043261874 0.09601304 -0.00060255243 -0.027374959
0.034470778 -0.026754584 0.0023751978 -0.027623244 -0.031596493 0.0661108 0.0033072047 -0.020464228
0.046632748 -0.007986601 -0.037676524 0.056799423 0.050092757 0.08155321 0.011469276 -0.03537167
-0.039471854 0.09549869 0.04539215 0.054210402 -0.07305839 0.05889352 -0.009309079 0.04593322

gat1.lin.weight f4 [256, 60]
00000000: 8cb0 16bb 62d5 ba3d 17b3 79bd 5c09 683d
00000010: c48b 0dbd df96 c2bd 7429 acbc d463 703d
00000020: 28eb c13d c070 863d 548e d3bd ac62 93b9
00000030: 847b 89bd 5283 b4bd 4233 003d 73f8 003e
00000040: 02b8 a53d 76f1 d6bd f829 b4bd 6cd9 80bd
00000050: 5b80 bdbd 13d9 8e3d 8e7a cf3d 9026 933d
00000060: 4c2a 343d 27eb a0bd 948f cb3d 149f f6bb
00000070: 4c76 0abd 4300 f63d cdd6 b3bd b8fa 103d
00000080: 4282 933d 8e83 bd3d 1adf d33d ae55 29bd
00000090: c426 d43b 46f5 44b8 8acc 203a 770e c8bd
000000a0: 7874 153d 1fd5 073e 97a7 99bb 2847 a83d
000000b0: fa71 a53d 63e6 aebd 46d2 8c3d 42b7 46bd
000000c0: 72f6 84bb 2afe 7fbd 95b3 42bd e952 883d
000000d0: 2e5d b83c a913 053e 5b2a 543d 1b0a 003e
000000e0: 06dd af3d 9c41 22bd 656d 5a3d 69e0 063e
000000f0: f2ba 963c 5987 29bb 0380 cc3c 8fdb fbbc
00000100: 34c7 89bd 071d 77bb 58f7 b53d 3e06 7bbd
00000110: 4e8f 5f3d 58dc 533d fafb f23d fa37 c7bd
00000120: 7471 40bd 9378 58bd f978 073e d2e8 f53d
00000130: 4b60 97bd 3e0b e1bd 30c5 65bd c18f bb3d
00000140: a003 a93d 86e2 3dbb 0a8c a33a e472 8abd
00000150: ddc9 dfbd 2641 fe3b 66d2 fc3d 4675 a1bd
00000160: b030 11bd a4df bfbd 3bd8 d73d ac83 91bb
00000170: 2f34 9bbd 633c 083e 5880 b53d 57cc 58bc
00000180: 4667 873d aab9 f63a 043d 113d 3852 9f3d
00000190: e8e9 863d 2b8c 9c3c a139 87bd 19e0 87b8
000001a0: 065e 63bd 6072 a6bd ad0d 7fbd 588c aa3d
000001b0: 3b62 fa3d 1b72 2f3c 85ab a2bc af2b e7bd
000001c0: b9cf 99bd 3160 4ebd 2ae8 433d fb56 863d
000001d0: e26d 9bbd 939f 253e bea0 bd3d 893e 4cbd
000001e0: af7a 0dbd 3c8a c9bd 36f3 95bd 3df2 8fbd
000001f0: bab0 f5bd 74a9 953c e8e5 6bbd c442 91bd
00000200: 0c79 2abd 840d 99bd ec24 a33d 593d e83c
00000210: b237 1bbd 58fa f73c 528b 3cbd 1087 ccbd
00000220: 8fa5 07be 5ed0 6cbd 26a0 ea3d d856 87bd
00000230: 422a 64bc 97db e53c de71 7b3c b80f b93d
00000240: 787d fdbc fad4 a43c 5a5b 803d 54bc 8f3c
00000250: f530 58bd 2e21 c3bd 62ba 06be 4c16 73bd
00000260: 0e8b 81bd a195 4a3d 120d 38bd 53e7 89bd
00000270: ea24 52bd 2c62 733d 1479 f5bc aea1 443d
00000280: 0602 dd3d 8e3d 233d 7e74 2a3d 3b2d 78bd
00000290: 863b 94bc 7774 cebd c020 98bc f137 ccbc
000002a0: 7671 873c 6190 083e a500 fabd 89ef 413d
000002b0: 07cb b53d 46a8 c23d 5cf4 e8bd 712e 3b3c
000002c0: 0338 99bd 1a78 7abc 21c4 b1bd c950 fcbd
000002d0: 97dc d4bd 5a5a 253e 7371 103e c25b e3bc
000002e0: e73e 93bd d8f6 c0bd 72ad 38bd 0ac0 a43a
000002f0: c77d a5bd d200 6dbd e269 e73c 5ee4 04bc
00000300: 7477 7ebc 9e5d d23d 8832 9bbd 2cf0 6a3d
00000310: c661 babd 9cea d1bd 19d7 08be e693 5e3d
00000320: c4c9 8fbd b09c e0bd ae0a 88bb 4617 debd
00000330: 108c f3bd 9899 7cbc aa33 94bd 7f58 c5bd
00000340: a3bc f5bc acb9 babc a7fe 94bd 22f9 ab3d
00000350: 9108 fd3c b989 03be 9a9f a6bd accd 3b3c
00000360: 68d4 36bb 6aef 863d 9ebe 04be 70b8 c23d
00000370: 71eb 8e3d d083 1fbd 6781 d33c 3bca da3d
00000380: 91a0 1fbe 4571 6b3c 3b08 9a3d ba83 efbd
00000390: de55 083e 3446 c53d 6e83 f4bb 9016 e43c
000003a0: 2639 88bc 81bf c4bd 063a 093d eeed 17be
000003b0: 53ee a4bd 4c88 e03c 532f 46bd 4b70 813d
000003c0: db5f f1bd 085e e5bd 65a1 063e 65c8 c4bc
000003d0: 35f1 dcbd 21cc 5ebd 2cdf eabd 22a8 a0bd
000003e0: fa96 64bd 7b02 0a3e fc7c d23c 0a02 13bd
000003f0: 046c 9a3d 32a4 8f3d 5107 c93d 2e89 3f3d
-0.0022993414 0.09122731 -0.06096181 0.05664955 -0.03455712 -0.095014326 -0.02101586 0.058688954
0.094686806 0.06564474 -0.10329881 -0.0002811154 -0.06713012 -0.0881411 0.031298883 0.12594776
0.08091737 -0.10495274 -0.087970674 -0.0629147 -0.092529975 0.06974997 0.10130797 0.071850896
0.04398565 -0.07857352 0.09939495 -0.007526288 -0.033804223 0.12011769 -0.087812044 0.035395354
0.07202579 0.09253608 0.103452876 -0.041341476 0.006474348 -4.695847e-05 0.00061339943 -0.09768384
0.036488026 0.13264893 -0.0046891677 0.08216697 0.0807838 -0.085400365 0.06876044 -0.048514612
-0.004057699 -0.06249825 -0.047534544 0.06656439 0.022505369 0.12995781 0.051798206 0.12503855
0.08587079 -0.03961335 0.053326983 0.13171543 0.01839969 -0.0025868027 0.024963384 -0.030744342
-0.06727448 -0.003770651 0.08885068 -0.06128525 0.054580025 0.051723808 0.11864467 -0.097274736
-0.046983197 -0.052849364 0.13229741 0.120072976 -0.07391413 -0.109884724 -0.056096256 0.09158278
0.082526445 -0.002897413 0.0012477648 -0.06760195 -0.10927174 0.007759231 0.12344818 -0.07883696
-0.035446823 -0.09368828 0.105392896 -0.0044407453 -0.075783126 0.13304286 0.0886237 -0.013232312
0.06611495 0.0018823643 0.03545858 0.07779354 0.06587583 0.019109806 -0.06602789 -6.479043e-05
-0.05550959 -0.08127284 -0.0622689 0.0832755 0.12225767 0.010708357 -0.019857178 -0.11287629
-0.07510323 -0.050384704 0.04782883 0.06559559 -0.07589318 0.16174154 0.09259175 -0.049864326
-0.03454083 -0.09840819 -0.073217794 -0.07028625 -0.119965985 0.018269278 -0.057592303 -0.07092813
-0.041619346 -0.07473281 0.07966027 0.028349565 -0.037894912 0.03027074 -0.046031304 -0.09986699
-0.1324675 -0.057815902 0.11456327 -0.06608361 -0.013926091 0.02805881 0.015346972 0.09036201
-0.030943617 0.020121086 0.06267424 0.017545857 -0.052781064 -0.09527813 -0.13157037 -0.059347436
-0.06325351 0.049459103 -0.04493434 -0.06733575 -0.051304735 0.059419796 -0.029964961 0.048005752
0.107914016 0.039853625 0.041615 -0.06059001 -0.01809479 -0.10080808 -0.018570304 -0.024929019
0.016533595 0.13336326 -0.12207154 0.04734758 0.08876615 0.09504752 -0.11374733 0.011424647
-0.074813865 -0.0152874235 -0.08679987 -0.12320096 -0.10393637 0.16147748 0.14105777 -0.027753714
-0.07189732 -0.09422082 -0.045087285 0.0012569439 -0.08080631 -0.05786211 0.028248731 -0.008111088
-0.0155314095 0.10271762 -0.075779974 0.057357952 -0.0910068 -0.10249826 -0.13363303 0.054340266
-0.070209056 -0.10967386 -0.0041516637 -0.10844283 -0.11891949 -0.015417479 -0.07236417 -0.0963602
-0.029997176 -0.022793613 -0.072751336 0.08397128 0.030887874 -0.12845506 -0.0813591 0.01146261
-0.00278976 0.06588633 -0.1296334 0.09507835 0.06978501 -0.038944066 0.02581854 0.10683104
-0.15588595 0.014370267 0.07521101 -0.11695047 0.13314006 0.09632531 -0.0074619567 0.02784279
-0.016628813 -0.09606839 0.0335026 -0.14836857 -0.08053269 0.027408741 -0.048384976 0.06320246
-0.11785861 -0.11199576 0.13147505 -0.024021337 -0.10788194 -0.05439389 -0.11468348 -0.07844569
-0.055808045 0.13477509 0.025694363 -0.035890616 0.075401336 0.0701374 0.098158486 0.046761684

gat2.att_src f4 [1, 1, 32]
00000000: 6454 133f 1671 da3e cc02 a53d 95f1 203e
00000010: bd77 3dbe 2995 6abe 05c0 acbe 2d0e 183f
00000020: 8d5b 9e3e 3221 c43e 9203 2a3e dfda 6ebc
00000030: 07cc 1c3f b7a0 ab3e f203 d3be 176d 73be
00000040: ed1d 0ebe e7dc 273f 5bd9 313f 8f91 903e
00000050: 2e4d 04be fb65 473e 7029 8f3e 9f83 3a3f
00000060: 2c00 d8bd 6309 5ebd 63aa ddbd 8ec4 c2be
00000070: 3939 133f 7798 2cbe 0e6c 1dbf 7d80 f43e
0.57550645 0.42664403 0.08057174 0.15717156 -0.18502708 -0.22908463 -0.3374025 0.5939663
0.30929223 0.38306576 0.16602924 -0.01457855 0.6124882 0.33521053 -0.41213948 -0.23772083
-0.13878603 0.65571445 0.69472283 0.28236052 -0.12920067 0.19472496 0.27961302 0.7285709
-0.10546908 -0.05420817 -0.10823514 -0.38040584 0.5750919 -0.16855036 -0.61493003 0.4775428

gat2.att_dst f4 [1, 1, 32]
00000000: 896c bb3e dc5c 82be 7cea 653d 99c3 733e
00000010: 47c0 9c3e 88b1 d73e 5d84 9e3e 2545 8cbe
00000020: 0576 09bd a2bc 6b3e 2563 fcbe 8c9a c13c
00000030: 2cff 8dbd c16e b63e ef71 70bd d20f 8a3e
00000040: 03fc 483e 35e3 06bc 42d9 b8be 39a8 55bd
00000050: ce9a 9c3d ca05 f5be f34d dc3e 232b 023d
00000060: 8080 be3e bdf2 bf3e 18ae 393e 81d7 053c
00000070: 0c0b f9bd 496d 243e 86dc 193e 3d78 293e
0.36606243 -0.2546147 0.056131825 0.23805083 0.30615446 0.42127633 0.3096036 -0.27396503
-0.033559818 0.23021176 -0.4929439 0.023633264 -0.06933436 0.35631374 -0.058702406 0.26965195
0.19627385 -0.008232881 -0.36103255 -0.052162383 0.07646714 -0.4785598 0.4302822 0.03177942
0.37207413 0.37489882 0.18132818 0.008169056 -0.1216031 0.16057314 0.1502553 0.16549774

gat2.bias f4 [32]
00000000: 6ee9 2ebc 5ac6 22bd ad35 383d c327 3f3d
00000010: 0c0a 1bbc 4872 febc cf0a 983c 8e15 bfbb
00000020: 7f2f 0bbd 38b7 173d 6b35 edba 8caf 233d
00000030: 2c98 9fbc 888b fbbc 0caa 3d3c 4aee cabc
00000040: 0c23 603d 3fa9 e9bc 34a9 353b d0e2 463d
00000050: 7778 223d 94b6 eebc 6c5d 393d 63f3 04bc
00000060: 85bf 70bc 6886 a7bc 734e 353d 7e4f 703d
00000070: bbac 34bd 29c7 533d ef5d 38bd 7903 243d
-0.010675771 -0.039739944 0.044973064 0.04666878 -0.009462845 -0.031060353 0.018559841 -0.005831427
-0.033980843 0.037039965 -0.0018097585 0.039962336 -0.01948174 -0.030706182 0.011576187 -0.024771828
0.054720923 -0.028523086 0.002771926 0.04855615 0.039665665 -0.029139794 0.04525511 -0.008114669
-0.014694099 -0.020449832 0.044264268 0.05866956 -0.04411004 0.051703606 -0.045011457 0.040042374

gat2.lin.weight f4 [32, 256]
00000000: 6a99 343d bb97 57be da08 f73d e4c3 bbbd
00000010: 68ee 81bd b810 93bd 6062 eb3c 414e 80bb
00000020: b1bb 8b3d bc6b fc3c cc91 2bbc d06c 683c
00000030: df70 60bd 1e37 f23d d76a 6abe 7288 ddbd
00000040: 6cc7 193e 4757 c53b b025 7d3e c205 62bd
00000050: 37d0 0c3e 057f 1abc 4686 6c3d 0dc3 5c3c
00000060: a49a 063e c731 493d 8d0a e63d 0a3d 65bd
00000070: 8463 2dbc 46f3 30bc 2e0c 203e 1857 27be
00000080: 0d94 12bc a902 bb3d 10ef 133e e58d 71bd
00000090: 803d 81bc cea8 dcbd 2f7f 193e 24d6 a03c
000000a0: d617 2bbd 2e90 cc3d 3190 483d f439 003e
000000b0: 4276 f2bd fde2 c43b 30f4 55bd f438 08be
000000c0: 8aa2 a33d 2442 32bc 0d56 edbc 2a4f 7e3b
000000d0: be9a 9fbd a027 e4bc 8104 273d 9dad 0dbe
000000e0: c9eb 38bd 1396 a1bd 7749 66bd a87d 783d
000000f0: cae1 1cbe 7337 08be afc1 87bd 5708 13bd
00000100: cfc4 a03d 8867 9e3d 877c 84bd 133a e53d
00000110: 3873 8cbd 70f7 23be 0bc1 073e 788c a0bd
00000120: 7790 20bd 32f9 39be 67e4 86bd a63a a7bd
00000130: 24d5 e63d 7027 0cbe 20e0 a0bd 720c 0f3e
00000140: 4bbd 89bd 2860 c73c cb33 2abe b38c f63d
00000150: c16b efbc e7cc 8dbd 56f8 88bd d0c0 34be
00000160: 9d9c 1d3e fb2d 06be 53aa 313e 1ac6 293d
00000170: 2750 bc3d b6ff 0bbc 8e24 003e dc1b 00be
00000180: bb81 9ebd 07a1 9cbd e76f 823d 910b 80be
00000190: c13f 933d 39e4 86bd 999e f53a a7a3 8bbe
000001a0: a4c5 3f3e 452d 023e 42f0 833d 07e9 c6bd
000001b0: 64d5 98bc 9e76 803b de65 d3bd 3892 15bd
000001c0: 06c2 bc3d c7ed dabc 3825 d9bb 6ce9 c9bc
000001d0: c692 d8bd 1136 1dbe 3dfe 29be a64e d7bd
000001e0: aa06 3ebe 32ba b7bc 07de 57bc 5680 2cbe
000001f0: 7e87 0e3d 6b00 013d e7bb 8ebd c1e1 043d
00000200: 78e8 d4bd 5b17 053e 9d85 a03d 852b 0fbe
00000210: 9bed c83d 4237 26bd 29bd c0bd d21e 183e
00000220: 7d4d afbd 830a 48bc 0783 30be d0be ed3d
00000230: 4d01 56bd 1290 26be bf53 84bd 7617 c7bd
00000240: 4391 2dbd af91 0fbe 65b8 93bb 7522 513e
00000250: d94a 023d 0201 de3c c4df c03b 3742 80be
00000260: 740b 07be 2c3c cbbd 20de 0cbe 229f ffbd
00000270: 0c62 5a3e 7a2d a7bd 7cdb 843c 1691 77bd
00000280: 7531 413d 0c73 a9bd b973 44bd b8a9 9e3d
00000290: 486d 933d 965a 7fbd e730 aebb cd4b a53c
000002a0: ab79 dd3d 586b 49bd 3175 2d3d bb8e 40bd
000002b0: 4751 b23d d2d2 e8bb cb3d 95be 725c e0bd
000002c0: 50de db3d f83c 87bd ac77 613c e984 7b3d
000002d0: daba 1ebd 5c0a 073e 8b5d 7bbd 1af1 cb3d
000002e0: 74eb 05be 2f5c 96bc 7b85 983c 86cb 3abd
000002f0: fbd6 96bb 37a6 18be a74c 90be d9b9 73bd
00000300: c096 e73c 1b95 d1bd f1cd 79bc 732d aabd
00000310: fb50 6c3b f618 06be f824 0abd 4cc8 1abc
00000320: fb4e c33d 46f2 87bc 597f 143d 3a16 743d
00000330: e2b3 96bc d2f4 253c ca33 9e3d 67d0 92bc
00000340: c335 063e 2d20 acbd 62f6 913d ee7e 8f3d
00000350: 137e c6bd bd7b 1d3d e8a6 d63d 8c0a 98bb
00000360: 8856 6f3d f5e4 6dbe 52d4 11bd d1ea 78bc
00000370: 04e6 39bd 6b73 093e 4142 54bd a66b 253d
00000380: 5e17 793b 46f3 783d 071b e2bc 683a 81be
00000390: 5838 48be a022 ccbd 3833 193d 19e6 a53d
000003a0: a320 d93d 19bd 713d 0fc8 8a3d db7d 43be
000003b0: 161d 6cbd 4dea 31bd c9f6 8c3c 4c56 ea3d
000003c0: d2ed 1e3c 1be4 f73d b0f6 82bd e20e a83c
000003d0: 3c76 7ebc 530b 12be caed 20be 892e a03c
000003e0: 304b 81bd ffb3 36be c1e9 56bc 47f4 34be
000003f0: 43dc 0bbe 54a0 8639 6aaf 6d3d 17e6 f93c
0.04409162 -0.21053974 0.12062235 -0.091682225 -0.063443005 -0.07180923 0.028733432 -0.0039155786
0.06822909 0.03081309 -0.010471772 0.014186099 -0.054795142 0.11826919 -0.22892319 -0.108170405
0.1501748 0.006022367 0.24721408 -0.055181272 0.13751303 -0.009429698 0.05774524 0.013474238
0.13144928 0.049119737 0.11232481 -0.055966415 -0.010582808 -0.010800188 0.15629646 -0.16341817
-0.008946431 0.09131367 0.14446664 -0.05897321 -0.015776396 -0.107743844 0.14989923 0.01963336
-0.04177078 0.099884376 0.048965637 0.12522107 -0.11838962 0.0060085044 -0.05223483 -0.13302976
0.07989986 -0.010880027 -0.028971696 0.003880451 -0.077931866 -0.027850926 0.04077578 -0.1383576
-0.045146737 -0.078899525 -0.056222405 0.06066671 -0.15320507 -0.13302402 -0.06628739 -0.035896625
0.07850038 0.07734591 -0.06469064 0.111927174 -0.06857914 -0.16012359 0.13257234 -0.07839292
-0.039200272 -0.18161467 -0.06586533 -0.08165483 0.11271122 -0.13686919 -0.078552485 0.13969591
-0.06725558 0.024337843 -0.1662132 0.12038555 -0.029226186 -0.06923848 -0.06687991 -0.17651677
0.15391774 -0.13103478 0.1735013 0.04144869 0.09194975 -0.008544853 0.12513945 -0.12510628
-0.07739588 -0.07647901 0.06369 -0.25008824 0.071898945 -0.06586499 0.0018739282 -0.27273294
0.18727738 0.12712581 0.0644231 -0.09712415 -0.01865644 0.0039203903 -0.10322164 -0.0365164
0.092166945 -0.02672471 -0.0066267513 -0.024647437 -0.1057487 -0.15352656 -0.1660089 -0.10513048
-0.1855723 -0.022427652 -0.013175494 -0.16845831 0.034797184 0.03149454 -0.06969433 0.03244186
-0.103959024 0.1299719 0.07837985 -0.13981445 0.09810945 -0.04058004 -0.094110794 0.14855507
-0.085597016 -0.012209537 -0.17237483 0.1160866 -0.052247334 -0.16265896 -0.06461286 -0.09721272
-0.04237486 -0.14020418 -0.0045080655 0.204233 0.03180966 0.02710009 0.00588605 -0.25050518
-0.13187963 -0.09923586 -0.13756609 -0.12481524 0.21326464 -0.08162971 0.01621794 -0.0604411
0.047166307 -0.082738966 -0.047961924 0.07747215 0.07198578 -0.06234225 -0.005315888 0.020177746
0.10814222 -0.049174637 0.04234809 -0.04701112 0.08706909 -0.00710521 -0.29148707 -0.109551325
0.10735762 -0.06603426 0.013761442 0.06140605 -0.038752414 0.13187546 -0.061368506 0.09958096
-0.130781 -0.018354503 0.018618336 -0.04560425 -0.0046032644 -0.14907156 -0.2818348 -0.05950341
0.028270125 -0.10233518 -0.015246854 -0.0830945 0.003605901 -0.1309546 -0.033726662 -0.009447169
0.09536549 -0.016595017 0.03625426 0.05959151 -0.018396322 0.0101291705 0.07724722 -0.01792164
0.13106446 -0.084045745 0.07127072 0.07006632 -0.096920155 0.038448084 0.104810536 -0.004639929
0.058432132 -0.23231871 -0.035602875 -0.015192703 -0.045385376 0.13422935 -0.051820997 0.040385865
0.0038008313 0.06077888 -0.027600778 -0.25239873 -0.19552743 -0.09967542 0.03740236 0.08100528
0.10601928 0.05901823 0.067764394 -0.19090979 -0.057644926 -0.043436337 0.01720752 0.11442241
0.0097002555 0.121040545 -0.06394708 0.02051491 -0.015531119 -0.14262132 -0.1571571 0.01955344
-0.06313169 -0.178421 -0.013117255 -0.1767131 -0.13658242 0.00025677925 0.058028616 0.030505223

fc.0.weight f4 [16, 32]
00000000: c3da 403e 8565 dbbd 72fd 923c 999b ecbd
00000010: 3f0d adbd 0441 283e 2f67 b33d 4ef7 1dbe
00000020: d950 fcbd f7c7 483d 32cb 23be 9e2b c23c
00000030: eeb1 69bd 11b8 2fbe cebe b23d c978 8ebb
00000040: c54f 1cbe 42f9 babd 8ae5 1bbd 3de8 38be
00000050: 8f02 c8bd e4f9 9c3d 7126 24be 07e1 5fbd
00000060: c605 ccbd caa4 6ebd d12a f4bd fdd3 c0bd
00000070: 5464 3c3e 658d 0d3d 0e89 393e 007f f23d
00000080: f556 51be 1e3d c83c 6e71 be3c ee24 353e
00000090: 3045 e4bd 6288 64be d986 f33d 6dec b2bd
000000a0: 3c3a 24be 937b 1d3e 58bb 8a3c 9b9c a1bd
000000b0: 2a02 2bbe d264 bc3c 8378 00be 6111 bc3c
000000c0: b70b 213e 481a 803c 8a07 013e 4682 453e
000000d0: dbc9 f03d 3a8b a93d e3e0 433c 097b 103d
000000e0: d775 cf3c b033 35be 44be 5abd ebe4 3a3e
000000f0: e340 14be 00ae 0ebe 216f d3bc 75f4 183e
00000100: f973 2a3d 4aca 2ebe a9b1 1d3e 29e5 f03d
00000110: 1993 4dbd cc85 75be 94f3 97bd f364 e0bd
00000120: 0f7b a23c c851 06bd aae2 623c bfed 383d
00000130: 5598 abbd 906a 49be 6a59 a63d 0d6e fcbd
00000140: eccd 0d3d d7b0 3e3d 3f0b 203e 01eb 053e
00000150: b0ea 78bd 5873 1cbc 1ed1 3c3e b2a9 fc3d
00000160: f9cd c7bd 7471 2bbe 38ea 6abd 27bd 1b3e
00000170: 9f47 e93c 1f36 2c3e 4894 3bbd b0f7 b23d
00000180: d43f 91bb 7915 a33d d9bc 7f3d 1662 fd3d
00000190: fa27 7cbd cbf6 843d 4512 d43d 926e e8bd
000001a0: 21ea a5bd 6a32 3a3e 29a4 36bc 3b69 823d
000001b0: b0a7 51bc fd6e 78bc 3321 323d 3fd0 d9bc
000001c0: c524 2b3e e9ca 30be 5983 20bd 24b2 c53d
000001d0: 1daf f43d 86b3 e1bd 7295 de3d f263 11bd
000001e0: 07a5 9d3d 7f8d 803d 8476 333e 633e a93d
000001f0: 5a39 413d 0a5a 143e f917 be3d 630a 993d
00000200: 5006 143e 039f 07be 3bfd 44bd 0bdd 98bd
00000210: 6a60 b6bd 055c a13c cf6d 063e 88b6 eebd
00000220: 6354 003e c5df 91bd e966 1e3e 0d4f fb3d
00000230: 3f7f 843c d7f9 8fbd 6471 023d 795a b33d
00000240: b482 8d3c 2c07 6e3c cea7 8cbd 2502 afbd
00000250: e7de 173c 3a45 f03d 4609 37bd 09ae 393d
00000260: 865c 33be 6c42 2dbe f5bc dbbc 3e0e 6b3d
00000270: a6b2 bbbd f50d 3d3d b8b1 e5bd c281 01bc
00000280: d535 1e3d 9278 123e 7dc9 8e3b aef2 103b
00000290: 7b3c 11bb cc96 08be 3c3c 10be 9545 ed3d
000002a0: e3ca d43b 7e44 00be a18c 403c 1236 cb3d
000002b0: 3511 eb3c 8419 5f3d e9e9 1a3e 262f e13d
000002c0: 1726 fdbc 82e0 96bc bf51 80bd a2f4 963d
000002d0: 716b 0cbd 3d43 1b3e b752 84bd a4a3 15bd
000002e0: 8a1e 2a3e 08e5 c0bb 5edb cabd 9812 db3d
000002f0: 91df 123e 1e22 19be 71cf 18be e9b9 c03d
00000300: 2644 59be e32b 2dbe 08c9 843d 24b9 e93d
00000310: e473 163d b188 1ebe 5181 b13a 9944 36bd
00000320: 5fec 8dbd 9400 4d3e ce7c 7e3c 7be0 9a3d
00000330: bf8a b03b 4230 31be b64b 283e b17a 22be
00000340: af94 ee3d e5e3 0ebe a592 2cbd 19e5 abbd
00000350: bf76 50bd 2b2b 843d 6f90 b03d 8adc 95bd
00000360: 703b 5c3d 0cba c2bc 79e9 b63d 300f 83bd
00000370: 78c4 12be 8612 04bb 4bb1 cebd d401 253c
00000380: 13cb 0cbe 6f49 ef3a ff16 c9bd 6e65 acbd
00000390: c780 053d 42db 0abe 5f70 d3bd 39ff 99bd
000003a0: eeb8 54be 2828 e7bd 7e83 4cbd b7c0 c83c
000003b0: 7ddf 5fbc 7908 713d 0bf6 243e f3a1 8f3d
000003c0: 577c ebbd 61ff 4fbd c908 453e a468 bc3d
000003d0: 1454 893d 29c2 b63d 5300 343d a8aa 86bd
000003e0: d022 b53d a556 533b 2d73 e33d 4192 48bd
000003f0: 544a 443d 835b f93d 1f76 e9bd bba1 8abd
0.18833451 -0.10712723 0.017943118 -0.115531154 -0.08449792 0.16431051 0.08759915 -0.1542637
-0.12320108 0.049018826 -0.15995482 0.023702439 -0.057054453 -0.1716006 0.08727799 -0.004347895
-0.15264805 -0.091295734 -0.038060702 -0.18057342 -0.09766113 0.0766485 -0.16030289 -0.054657962
-0.09962039 -0.058262624 -0.11922229 -0.094154336 0.18397647 0.034558672 0.18118688 0.118406296
-0.20443328 0.024443205 0.023247447 0.17689869 -0.11146009 -0.22317651 0.118909545 -0.08736501
-0.1603784 0.15379171 0.016935036 -0.07891198 -0.16700044 0.022997294 -0.12545972 0.022957506
0.15727125 0.015637532 0.12600532 0.19287977 0.11757251 0.082785085 0.011955473 0.035273585
0.025324745 -0.17695498 -0.053404108 0.18251388 -0.14477877 -0.13933563 -0.025809826 0.14937003
0.041614506 -0.17069355 0.15399803 0.11762459 -0.05018911 -0.2397682 -0.07419506 -0.109567545
0.01983407 -0.032792836 0.013847986 0.045148607 -0.083786644 -0.19669557 0.08122523 -0.12325678
0.03462021 0.046555366 0.1562929 0.13077928 -0.06077069 -0.0095489845 0.18439147 0.12337054
-0.09756083 -0.16742498 -0.057352275 0.15208875 0.028476534 0.1681752 -0.04579571 0.08738649
-0.0044326577 0.0796308 0.06243596 0.12372224 -0.061561562 0.064923845 0.10355047 -0.113492146
-0.08101297 0.18183294 -0.011147537 0.06367727 -0.0127963275 -0.01516318 0.043488692 -0.026588557
0.16713245 -0.17264904 -0.039187763 0.09653118 0.11947463 -0.110205695 0.10868348 -0.035495706
0.07697492 0.06276988 0.17525679 0.082638524 0.047173835 0.14487472 0.09281916 0.07472684
0.14455533 -0.13244252 -0.048093062 -0.074640356 -0.08905108 0.019697199 0.13127826 -0.11655909
0.12532191 -0.07122759 0.15468945 0.12270937 0.016173957 -0.07030075 0.03184642 0.08757491
0.017274238 0.014528077 -0.06867944 -0.08545331 0.009269453 0.11731954 -0.04468658 0.04533199
-0.17515764 -0.16919869 -0.0268235 0.05738663 -0.09164934 0.04615589 -0.11215538 -0.007904472
0.038625557 0.14303806 0.0043575154 0.0022117305 -0.0022161293 -0.13338774 -0.14085478 0.11585537
0.0064939125 -0.12526128 0.011752279 0.099224225 0.028694728 0.054467693 0.15128292 0.10995321
-0.030901952 -0.0184176 -0.06265592 0.07370879 -0.03428215 0.15162368 -0.06461089 -0.036533013
0.16613212 -0.0058866777 -0.09905122 0.10696906 0.14343096 -0.14954421 -0.14922883 0.094104595
-0.21217403 -0.16911273 0.06483656 0.11412266 0.036731616 -0.15481831 0.0013542568 -0.044499014
-0.0692985 0.20019752 0.015532685 0.075623475 0.0053876336 -0.17303565 0.16435131 -0.15867116
0.11649453 -0.13954122 -0.04213204 -0.08393306 -0.050894495 0.06453546 0.086212985 -0.07317455
0.05376762 -0.023770355 0.0893125 -0.06399381 -0.1433276 -0.0020152642 -0.1009241 0.010071237
-0.13749342 0.0018256138 -0.09818839 -0.08417784 0.032593515 -0.13560203 -0.103241675 -0.07519383
-0.2077367 -0.11286956 -0.04993009 0.024505956 -0.013664124 0.05884597 0.16109483 0.07013311
-0.11498325 -0.050780658 0.19241633 0.09199646 0.0670549 0.08923752 0.04394562 -0.06575519
0.088445306 0.003224769 0.111059524 -0.048967604 0.047922447 0.121756576 -0.11399483 -0.06769129

fc.0.bias f4 [16]
00000000: ad46 ddbd 44f8 dcbd 6de9 8cbd de17 293e
00000010: 698d d93d 6db7 e53c 055b 533e 6912 33bd
00000020: 58ab abbd 82ed 2e3d 8e5a 243e b7a8 443d
00000030: 2c5b 15be aee7 09be 012a 043e 74e2 b13d
-0.10804496 -0.107895404 -0.0688046 0.16513011 0.10622675 0.028041566 0.2064019 -0.04371873
-0.083822906 0.042706974 0.16050169 0.04801246 -0.1458556 -0.13467285 0.12906648 0.08685771

fc.2.weight f4 [1, 16]
00000000: 80a3 333e c2d8 2dbe 469a 6fbe e01d efbd
00000010: 43e5 403e 0c42 72bc d830 19be 9ba6 c9bd
00000020: 71c0 8e3d 9dbc babd 16c6 623e f7ad 903d
00000030: b7b4 743e 2cf9 63bd a243 e23c a731 86be
0.17542839 -0.16977218 -0.23398694 -0.1167562 0.18837456 -0.014786255 -0.14960039 -0.098462306
0.06970299 -0.091180064 0.22145876 0.07064431 0.23897062 -0.05565755 0.02762014 -0.26209757
